<?xml version="1.0"?>
<net name="densenet121" version="6" batch="1">
	<layers>
		<layer name="input" type="Input" precision="FP32" id="0">
			<output>
				<port id="0" precision="FP32">
					<dim>1</dim>
					<dim>3</dim>
					<dim>224</dim>
					<dim>224</dim>
				</port>
			</output>
		</layer>
		<layer name="Conv_0" type="Convolution" precision="FP32" id="1">
			<data dilations="1,1" group="1" kernel="7,7" output="64" pads_begin="3,3" pads_end="3,3" quantization_level="I8" strides="2,2" />
			<input>
				<port id="0">
					<dim>1</dim>
					<dim>3</dim>
					<dim>224</dim>
					<dim>224</dim>
				</port>
			</input>
			<output>
				<port id="1" precision="FP32">
					<dim>1</dim>
					<dim>64</dim>
					<dim>112</dim>
					<dim>112</dim>
				</port>
			</output>
			<blobs>
				<biases offset="0" size="256" />
				<weights offset="256" size="37632" />
			</blobs>
		</layer>
		<layer name="Relu_2" type="ReLU" precision="FP32" id="2">
			<input>
				<port id="0">
					<dim>1</dim>
					<dim>64</dim>
					<dim>112</dim>
					<dim>112</dim>
				</port>
			</input>
			<output>
				<port id="1" precision="FP32">
					<dim>1</dim>
					<dim>64</dim>
					<dim>112</dim>
					<dim>112</dim>
				</port>
			</output>
		</layer>
		<layer name="MaxPool_3" type="Pooling" precision="FP32" id="3">
			<data exclude-pad="true" kernel="3,3" pads_begin="1,1" pads_end="1,1" pool-method="max" rounding_type="floor" strides="2,2" />
			<input>
				<port id="0">
					<dim>1</dim>
					<dim>64</dim>
					<dim>112</dim>
					<dim>112</dim>
				</port>
			</input>
			<output>
				<port id="1" precision="FP32">
					<dim>1</dim>
					<dim>64</dim>
					<dim>56</dim>
					<dim>56</dim>
				</port>
			</output>
		</layer>
		<layer name="Concat_4" type="Concat" precision="FP32" id="4">
			<data axis="1" />
			<input>
				<port id="0">
					<dim>1</dim>
					<dim>64</dim>
					<dim>56</dim>
					<dim>56</dim>
				</port>
			</input>
			<output>
				<port id="1" precision="FP32">
					<dim>1</dim>
					<dim>64</dim>
					<dim>56</dim>
					<dim>56</dim>
				</port>
			</output>
		</layer>
		<layer name="Mul1_13625/Fused_Mul_/FusedScaleShift_" type="ScaleShift" precision="FP32" id="5">
			<data broadcast="0" />
			<input>
				<port id="0">
					<dim>1</dim>
					<dim>64</dim>
					<dim>56</dim>
					<dim>56</dim>
				</port>
			</input>
			<output>
				<port id="1" precision="FP32">
					<dim>1</dim>
					<dim>64</dim>
					<dim>56</dim>
					<dim>56</dim>
				</port>
			</output>
			<blobs>
				<biases offset="37888" size="256" />
				<weights offset="38144" size="256" />
			</blobs>
		</layer>
		<layer name="Relu_6" type="ReLU" precision="FP32" id="6">
			<input>
				<port id="0">
					<dim>1</dim>
					<dim>64</dim>
					<dim>56</dim>
					<dim>56</dim>
				</port>
			</input>
			<output>
				<port id="1" precision="FP32">
					<dim>1</dim>
					<dim>64</dim>
					<dim>56</dim>
					<dim>56</dim>
				</port>
			</output>
		</layer>
		<layer name="Conv_7" type="Convolution" precision="FP32" id="7">
			<data dilations="1,1" group="1" kernel="1,1" output="128" pads_begin="0,0" pads_end="0,0" quantization_level="I8" strides="1,1" />
			<input>
				<port id="0">
					<dim>1</dim>
					<dim>64</dim>
					<dim>56</dim>
					<dim>56</dim>
				</port>
			</input>
			<output>
				<port id="1" precision="FP32">
					<dim>1</dim>
					<dim>128</dim>
					<dim>56</dim>
					<dim>56</dim>
				</port>
			</output>
			<blobs>
				<biases offset="38400" size="512" />
				<weights offset="38912" size="32768" />
			</blobs>
		</layer>
		<layer name="Relu_9" type="ReLU" precision="FP32" id="8">
			<input>
				<port id="0">
					<dim>1</dim>
					<dim>128</dim>
					<dim>56</dim>
					<dim>56</dim>
				</port>
			</input>
			<output>
				<port id="1" precision="FP32">
					<dim>1</dim>
					<dim>128</dim>
					<dim>56</dim>
					<dim>56</dim>
				</port>
			</output>
		</layer>
		<layer name="Conv_10" type="Convolution" precision="FP32" id="9">
			<data dilations="1,1" group="1" kernel="3,3" output="32" pads_begin="1,1" pads_end="1,1" quantization_level="I8" strides="1,1" />
			<input>
				<port id="0">
					<dim>1</dim>
					<dim>128</dim>
					<dim>56</dim>
					<dim>56</dim>
				</port>
			</input>
			<output>
				<port id="1" precision="FP32">
					<dim>1</dim>
					<dim>32</dim>
					<dim>56</dim>
					<dim>56</dim>
				</port>
			</output>
			<blobs>
				<weights offset="71680" size="147456" />
			</blobs>
		</layer>
		<layer name="Concat_11" type="Concat" precision="FP32" id="10">
			<data axis="1" />
			<input>
				<port id="0">
					<dim>1</dim>
					<dim>64</dim>
					<dim>56</dim>
					<dim>56</dim>
				</port>
				<port id="1">
					<dim>1</dim>
					<dim>32</dim>
					<dim>56</dim>
					<dim>56</dim>
				</port>
			</input>
			<output>
				<port id="2" precision="FP32">
					<dim>1</dim>
					<dim>96</dim>
					<dim>56</dim>
					<dim>56</dim>
				</port>
			</output>
		</layer>
		<layer name="Mul1_13649/Fused_Mul_/FusedScaleShift_" type="ScaleShift" precision="FP32" id="11">
			<data broadcast="0" />
			<input>
				<port id="0">
					<dim>1</dim>
					<dim>96</dim>
					<dim>56</dim>
					<dim>56</dim>
				</port>
			</input>
			<output>
				<port id="1" precision="FP32">
					<dim>1</dim>
					<dim>96</dim>
					<dim>56</dim>
					<dim>56</dim>
				</port>
			</output>
			<blobs>
				<biases offset="219136" size="384" />
				<weights offset="219520" size="384" />
			</blobs>
		</layer>
		<layer name="Relu_13" type="ReLU" precision="FP32" id="12">
			<input>
				<port id="0">
					<dim>1</dim>
					<dim>96</dim>
					<dim>56</dim>
					<dim>56</dim>
				</port>
			</input>
			<output>
				<port id="1" precision="FP32">
					<dim>1</dim>
					<dim>96</dim>
					<dim>56</dim>
					<dim>56</dim>
				</port>
			</output>
		</layer>
		<layer name="Conv_14" type="Convolution" precision="FP32" id="13">
			<data dilations="1,1" group="1" kernel="1,1" output="128" pads_begin="0,0" pads_end="0,0" quantization_level="I8" strides="1,1" />
			<input>
				<port id="0">
					<dim>1</dim>
					<dim>96</dim>
					<dim>56</dim>
					<dim>56</dim>
				</port>
			</input>
			<output>
				<port id="1" precision="FP32">
					<dim>1</dim>
					<dim>128</dim>
					<dim>56</dim>
					<dim>56</dim>
				</port>
			</output>
			<blobs>
				<biases offset="219904" size="512" />
				<weights offset="220416" size="49152" />
			</blobs>
		</layer>
		<layer name="Relu_16" type="ReLU" precision="FP32" id="14">
			<input>
				<port id="0">
					<dim>1</dim>
					<dim>128</dim>
					<dim>56</dim>
					<dim>56</dim>
				</port>
			</input>
			<output>
				<port id="1" precision="FP32">
					<dim>1</dim>
					<dim>128</dim>
					<dim>56</dim>
					<dim>56</dim>
				</port>
			</output>
		</layer>
		<layer name="Conv_17" type="Convolution" precision="FP32" id="15">
			<data dilations="1,1" group="1" kernel="3,3" output="32" pads_begin="1,1" pads_end="1,1" quantization_level="I8" strides="1,1" />
			<input>
				<port id="0">
					<dim>1</dim>
					<dim>128</dim>
					<dim>56</dim>
					<dim>56</dim>
				</port>
			</input>
			<output>
				<port id="1" precision="FP32">
					<dim>1</dim>
					<dim>32</dim>
					<dim>56</dim>
					<dim>56</dim>
				</port>
			</output>
			<blobs>
				<weights offset="269568" size="147456" />
			</blobs>
		</layer>
		<layer name="Concat_18" type="Concat" precision="FP32" id="16">
			<data axis="1" />
			<input>
				<port id="0">
					<dim>1</dim>
					<dim>64</dim>
					<dim>56</dim>
					<dim>56</dim>
				</port>
				<port id="1">
					<dim>1</dim>
					<dim>32</dim>
					<dim>56</dim>
					<dim>56</dim>
				</port>
				<port id="2">
					<dim>1</dim>
					<dim>32</dim>
					<dim>56</dim>
					<dim>56</dim>
				</port>
			</input>
			<output>
				<port id="3" precision="FP32">
					<dim>1</dim>
					<dim>128</dim>
					<dim>56</dim>
					<dim>56</dim>
				</port>
			</output>
		</layer>
		<layer name="Mul1_13673/Fused_Mul_/FusedScaleShift_" type="ScaleShift" precision="FP32" id="17">
			<data broadcast="0" />
			<input>
				<port id="0">
					<dim>1</dim>
					<dim>128</dim>
					<dim>56</dim>
					<dim>56</dim>
				</port>
			</input>
			<output>
				<port id="1" precision="FP32">
					<dim>1</dim>
					<dim>128</dim>
					<dim>56</dim>
					<dim>56</dim>
				</port>
			</output>
			<blobs>
				<biases offset="417024" size="512" />
				<weights offset="417536" size="512" />
			</blobs>
		</layer>
		<layer name="Relu_20" type="ReLU" precision="FP32" id="18">
			<input>
				<port id="0">
					<dim>1</dim>
					<dim>128</dim>
					<dim>56</dim>
					<dim>56</dim>
				</port>
			</input>
			<output>
				<port id="1" precision="FP32">
					<dim>1</dim>
					<dim>128</dim>
					<dim>56</dim>
					<dim>56</dim>
				</port>
			</output>
		</layer>
		<layer name="Conv_21" type="Convolution" precision="FP32" id="19">
			<data dilations="1,1" group="1" kernel="1,1" output="128" pads_begin="0,0" pads_end="0,0" quantization_level="I8" strides="1,1" />
			<input>
				<port id="0">
					<dim>1</dim>
					<dim>128</dim>
					<dim>56</dim>
					<dim>56</dim>
				</port>
			</input>
			<output>
				<port id="1" precision="FP32">
					<dim>1</dim>
					<dim>128</dim>
					<dim>56</dim>
					<dim>56</dim>
				</port>
			</output>
			<blobs>
				<biases offset="418048" size="512" />
				<weights offset="418560" size="65536" />
			</blobs>
		</layer>
		<layer name="Relu_23" type="ReLU" precision="FP32" id="20">
			<input>
				<port id="0">
					<dim>1</dim>
					<dim>128</dim>
					<dim>56</dim>
					<dim>56</dim>
				</port>
			</input>
			<output>
				<port id="1" precision="FP32">
					<dim>1</dim>
					<dim>128</dim>
					<dim>56</dim>
					<dim>56</dim>
				</port>
			</output>
		</layer>
		<layer name="Conv_24" type="Convolution" precision="FP32" id="21">
			<data dilations="1,1" group="1" kernel="3,3" output="32" pads_begin="1,1" pads_end="1,1" quantization_level="I8" strides="1,1" />
			<input>
				<port id="0">
					<dim>1</dim>
					<dim>128</dim>
					<dim>56</dim>
					<dim>56</dim>
				</port>
			</input>
			<output>
				<port id="1" precision="FP32">
					<dim>1</dim>
					<dim>32</dim>
					<dim>56</dim>
					<dim>56</dim>
				</port>
			</output>
			<blobs>
				<weights offset="484096" size="147456" />
			</blobs>
		</layer>
		<layer name="Concat_25" type="Concat" precision="FP32" id="22">
			<data axis="1" />
			<input>
				<port id="0">
					<dim>1</dim>
					<dim>64</dim>
					<dim>56</dim>
					<dim>56</dim>
				</port>
				<port id="1">
					<dim>1</dim>
					<dim>32</dim>
					<dim>56</dim>
					<dim>56</dim>
				</port>
				<port id="2">
					<dim>1</dim>
					<dim>32</dim>
					<dim>56</dim>
					<dim>56</dim>
				</port>
				<port id="3">
					<dim>1</dim>
					<dim>32</dim>
					<dim>56</dim>
					<dim>56</dim>
				</port>
			</input>
			<output>
				<port id="4" precision="FP32">
					<dim>1</dim>
					<dim>160</dim>
					<dim>56</dim>
					<dim>56</dim>
				</port>
			</output>
		</layer>
		<layer name="Mul1_13697/Fused_Mul_/FusedScaleShift_" type="ScaleShift" precision="FP32" id="23">
			<data broadcast="0" />
			<input>
				<port id="0">
					<dim>1</dim>
					<dim>160</dim>
					<dim>56</dim>
					<dim>56</dim>
				</port>
			</input>
			<output>
				<port id="1" precision="FP32">
					<dim>1</dim>
					<dim>160</dim>
					<dim>56</dim>
					<dim>56</dim>
				</port>
			</output>
			<blobs>
				<biases offset="631552" size="640" />
				<weights offset="632192" size="640" />
			</blobs>
		</layer>
		<layer name="Relu_27" type="ReLU" precision="FP32" id="24">
			<input>
				<port id="0">
					<dim>1</dim>
					<dim>160</dim>
					<dim>56</dim>
					<dim>56</dim>
				</port>
			</input>
			<output>
				<port id="1" precision="FP32">
					<dim>1</dim>
					<dim>160</dim>
					<dim>56</dim>
					<dim>56</dim>
				</port>
			</output>
		</layer>
		<layer name="Conv_28" type="Convolution" precision="FP32" id="25">
			<data dilations="1,1" group="1" kernel="1,1" output="128" pads_begin="0,0" pads_end="0,0" quantization_level="I8" strides="1,1" />
			<input>
				<port id="0">
					<dim>1</dim>
					<dim>160</dim>
					<dim>56</dim>
					<dim>56</dim>
				</port>
			</input>
			<output>
				<port id="1" precision="FP32">
					<dim>1</dim>
					<dim>128</dim>
					<dim>56</dim>
					<dim>56</dim>
				</port>
			</output>
			<blobs>
				<biases offset="632832" size="512" />
				<weights offset="633344" size="81920" />
			</blobs>
		</layer>
		<layer name="Relu_30" type="ReLU" precision="FP32" id="26">
			<input>
				<port id="0">
					<dim>1</dim>
					<dim>128</dim>
					<dim>56</dim>
					<dim>56</dim>
				</port>
			</input>
			<output>
				<port id="1" precision="FP32">
					<dim>1</dim>
					<dim>128</dim>
					<dim>56</dim>
					<dim>56</dim>
				</port>
			</output>
		</layer>
		<layer name="Conv_31" type="Convolution" precision="FP32" id="27">
			<data dilations="1,1" group="1" kernel="3,3" output="32" pads_begin="1,1" pads_end="1,1" quantization_level="I8" strides="1,1" />
			<input>
				<port id="0">
					<dim>1</dim>
					<dim>128</dim>
					<dim>56</dim>
					<dim>56</dim>
				</port>
			</input>
			<output>
				<port id="1" precision="FP32">
					<dim>1</dim>
					<dim>32</dim>
					<dim>56</dim>
					<dim>56</dim>
				</port>
			</output>
			<blobs>
				<weights offset="715264" size="147456" />
			</blobs>
		</layer>
		<layer name="Concat_32" type="Concat" precision="FP32" id="28">
			<data axis="1" />
			<input>
				<port id="0">
					<dim>1</dim>
					<dim>64</dim>
					<dim>56</dim>
					<dim>56</dim>
				</port>
				<port id="1">
					<dim>1</dim>
					<dim>32</dim>
					<dim>56</dim>
					<dim>56</dim>
				</port>
				<port id="2">
					<dim>1</dim>
					<dim>32</dim>
					<dim>56</dim>
					<dim>56</dim>
				</port>
				<port id="3">
					<dim>1</dim>
					<dim>32</dim>
					<dim>56</dim>
					<dim>56</dim>
				</port>
				<port id="4">
					<dim>1</dim>
					<dim>32</dim>
					<dim>56</dim>
					<dim>56</dim>
				</port>
			</input>
			<output>
				<port id="5" precision="FP32">
					<dim>1</dim>
					<dim>192</dim>
					<dim>56</dim>
					<dim>56</dim>
				</port>
			</output>
		</layer>
		<layer name="Mul1_13721/Fused_Mul_/FusedScaleShift_" type="ScaleShift" precision="FP32" id="29">
			<data broadcast="0" />
			<input>
				<port id="0">
					<dim>1</dim>
					<dim>192</dim>
					<dim>56</dim>
					<dim>56</dim>
				</port>
			</input>
			<output>
				<port id="1" precision="FP32">
					<dim>1</dim>
					<dim>192</dim>
					<dim>56</dim>
					<dim>56</dim>
				</port>
			</output>
			<blobs>
				<biases offset="862720" size="768" />
				<weights offset="863488" size="768" />
			</blobs>
		</layer>
		<layer name="Relu_34" type="ReLU" precision="FP32" id="30">
			<input>
				<port id="0">
					<dim>1</dim>
					<dim>192</dim>
					<dim>56</dim>
					<dim>56</dim>
				</port>
			</input>
			<output>
				<port id="1" precision="FP32">
					<dim>1</dim>
					<dim>192</dim>
					<dim>56</dim>
					<dim>56</dim>
				</port>
			</output>
		</layer>
		<layer name="Conv_35" type="Convolution" precision="FP32" id="31">
			<data dilations="1,1" group="1" kernel="1,1" output="128" pads_begin="0,0" pads_end="0,0" quantization_level="I8" strides="1,1" />
			<input>
				<port id="0">
					<dim>1</dim>
					<dim>192</dim>
					<dim>56</dim>
					<dim>56</dim>
				</port>
			</input>
			<output>
				<port id="1" precision="FP32">
					<dim>1</dim>
					<dim>128</dim>
					<dim>56</dim>
					<dim>56</dim>
				</port>
			</output>
			<blobs>
				<biases offset="864256" size="512" />
				<weights offset="864768" size="98304" />
			</blobs>
		</layer>
		<layer name="Relu_37" type="ReLU" precision="FP32" id="32">
			<input>
				<port id="0">
					<dim>1</dim>
					<dim>128</dim>
					<dim>56</dim>
					<dim>56</dim>
				</port>
			</input>
			<output>
				<port id="1" precision="FP32">
					<dim>1</dim>
					<dim>128</dim>
					<dim>56</dim>
					<dim>56</dim>
				</port>
			</output>
		</layer>
		<layer name="Conv_38" type="Convolution" precision="FP32" id="33">
			<data dilations="1,1" group="1" kernel="3,3" output="32" pads_begin="1,1" pads_end="1,1" quantization_level="I8" strides="1,1" />
			<input>
				<port id="0">
					<dim>1</dim>
					<dim>128</dim>
					<dim>56</dim>
					<dim>56</dim>
				</port>
			</input>
			<output>
				<port id="1" precision="FP32">
					<dim>1</dim>
					<dim>32</dim>
					<dim>56</dim>
					<dim>56</dim>
				</port>
			</output>
			<blobs>
				<weights offset="963072" size="147456" />
			</blobs>
		</layer>
		<layer name="Concat_39" type="Concat" precision="FP32" id="34">
			<data axis="1" />
			<input>
				<port id="0">
					<dim>1</dim>
					<dim>64</dim>
					<dim>56</dim>
					<dim>56</dim>
				</port>
				<port id="1">
					<dim>1</dim>
					<dim>32</dim>
					<dim>56</dim>
					<dim>56</dim>
				</port>
				<port id="2">
					<dim>1</dim>
					<dim>32</dim>
					<dim>56</dim>
					<dim>56</dim>
				</port>
				<port id="3">
					<dim>1</dim>
					<dim>32</dim>
					<dim>56</dim>
					<dim>56</dim>
				</port>
				<port id="4">
					<dim>1</dim>
					<dim>32</dim>
					<dim>56</dim>
					<dim>56</dim>
				</port>
				<port id="5">
					<dim>1</dim>
					<dim>32</dim>
					<dim>56</dim>
					<dim>56</dim>
				</port>
			</input>
			<output>
				<port id="6" precision="FP32">
					<dim>1</dim>
					<dim>224</dim>
					<dim>56</dim>
					<dim>56</dim>
				</port>
			</output>
		</layer>
		<layer name="Mul1_13745/Fused_Mul_/FusedScaleShift_" type="ScaleShift" precision="FP32" id="35">
			<data broadcast="0" />
			<input>
				<port id="0">
					<dim>1</dim>
					<dim>224</dim>
					<dim>56</dim>
					<dim>56</dim>
				</port>
			</input>
			<output>
				<port id="1" precision="FP32">
					<dim>1</dim>
					<dim>224</dim>
					<dim>56</dim>
					<dim>56</dim>
				</port>
			</output>
			<blobs>
				<biases offset="1110528" size="896" />
				<weights offset="1111424" size="896" />
			</blobs>
		</layer>
		<layer name="Relu_41" type="ReLU" precision="FP32" id="36">
			<input>
				<port id="0">
					<dim>1</dim>
					<dim>224</dim>
					<dim>56</dim>
					<dim>56</dim>
				</port>
			</input>
			<output>
				<port id="1" precision="FP32">
					<dim>1</dim>
					<dim>224</dim>
					<dim>56</dim>
					<dim>56</dim>
				</port>
			</output>
		</layer>
		<layer name="Conv_42" type="Convolution" precision="FP32" id="37">
			<data dilations="1,1" group="1" kernel="1,1" output="128" pads_begin="0,0" pads_end="0,0" quantization_level="I8" strides="1,1" />
			<input>
				<port id="0">
					<dim>1</dim>
					<dim>224</dim>
					<dim>56</dim>
					<dim>56</dim>
				</port>
			</input>
			<output>
				<port id="1" precision="FP32">
					<dim>1</dim>
					<dim>128</dim>
					<dim>56</dim>
					<dim>56</dim>
				</port>
			</output>
			<blobs>
				<biases offset="1112320" size="512" />
				<weights offset="1112832" size="114688" />
			</blobs>
		</layer>
		<layer name="Relu_44" type="ReLU" precision="FP32" id="38">
			<input>
				<port id="0">
					<dim>1</dim>
					<dim>128</dim>
					<dim>56</dim>
					<dim>56</dim>
				</port>
			</input>
			<output>
				<port id="1" precision="FP32">
					<dim>1</dim>
					<dim>128</dim>
					<dim>56</dim>
					<dim>56</dim>
				</port>
			</output>
		</layer>
		<layer name="Conv_45" type="Convolution" precision="FP32" id="39">
			<data dilations="1,1" group="1" kernel="3,3" output="32" pads_begin="1,1" pads_end="1,1" quantization_level="I8" strides="1,1" />
			<input>
				<port id="0">
					<dim>1</dim>
					<dim>128</dim>
					<dim>56</dim>
					<dim>56</dim>
				</port>
			</input>
			<output>
				<port id="1" precision="FP32">
					<dim>1</dim>
					<dim>32</dim>
					<dim>56</dim>
					<dim>56</dim>
				</port>
			</output>
			<blobs>
				<weights offset="1227520" size="147456" />
			</blobs>
		</layer>
		<layer name="Concat_46" type="Concat" precision="FP32" id="40">
			<data axis="1" />
			<input>
				<port id="0">
					<dim>1</dim>
					<dim>64</dim>
					<dim>56</dim>
					<dim>56</dim>
				</port>
				<port id="1">
					<dim>1</dim>
					<dim>32</dim>
					<dim>56</dim>
					<dim>56</dim>
				</port>
				<port id="2">
					<dim>1</dim>
					<dim>32</dim>
					<dim>56</dim>
					<dim>56</dim>
				</port>
				<port id="3">
					<dim>1</dim>
					<dim>32</dim>
					<dim>56</dim>
					<dim>56</dim>
				</port>
				<port id="4">
					<dim>1</dim>
					<dim>32</dim>
					<dim>56</dim>
					<dim>56</dim>
				</port>
				<port id="5">
					<dim>1</dim>
					<dim>32</dim>
					<dim>56</dim>
					<dim>56</dim>
				</port>
				<port id="6">
					<dim>1</dim>
					<dim>32</dim>
					<dim>56</dim>
					<dim>56</dim>
				</port>
			</input>
			<output>
				<port id="7" precision="FP32">
					<dim>1</dim>
					<dim>256</dim>
					<dim>56</dim>
					<dim>56</dim>
				</port>
			</output>
		</layer>
		<layer name="Mul1_13769/Fused_Mul_/FusedScaleShift_" type="ScaleShift" precision="FP32" id="41">
			<data broadcast="0" />
			<input>
				<port id="0">
					<dim>1</dim>
					<dim>256</dim>
					<dim>56</dim>
					<dim>56</dim>
				</port>
			</input>
			<output>
				<port id="1" precision="FP32">
					<dim>1</dim>
					<dim>256</dim>
					<dim>56</dim>
					<dim>56</dim>
				</port>
			</output>
			<blobs>
				<biases offset="1374976" size="1024" />
				<weights offset="1376000" size="1024" />
			</blobs>
		</layer>
		<layer name="Relu_48" type="ReLU" precision="FP32" id="42">
			<input>
				<port id="0">
					<dim>1</dim>
					<dim>256</dim>
					<dim>56</dim>
					<dim>56</dim>
				</port>
			</input>
			<output>
				<port id="1" precision="FP32">
					<dim>1</dim>
					<dim>256</dim>
					<dim>56</dim>
					<dim>56</dim>
				</port>
			</output>
		</layer>
		<layer name="Conv_49" type="Convolution" precision="FP32" id="43">
			<data dilations="1,1" group="1" kernel="1,1" output="128" pads_begin="0,0" pads_end="0,0" quantization_level="I8" strides="1,1" />
			<input>
				<port id="0">
					<dim>1</dim>
					<dim>256</dim>
					<dim>56</dim>
					<dim>56</dim>
				</port>
			</input>
			<output>
				<port id="1" precision="FP32">
					<dim>1</dim>
					<dim>128</dim>
					<dim>56</dim>
					<dim>56</dim>
				</port>
			</output>
			<blobs>
				<weights offset="1377024" size="131072" />
			</blobs>
		</layer>
		<layer name="AveragePool_51" type="Pooling" precision="FP32" id="44">
			<data exclude-pad="true" kernel="2,2" pads_begin="0,0" pads_end="0,0" pool-method="avg" rounding_type="floor" strides="2,2" />
			<input>
				<port id="0">
					<dim>1</dim>
					<dim>128</dim>
					<dim>56</dim>
					<dim>56</dim>
				</port>
			</input>
			<output>
				<port id="1" precision="FP32">
					<dim>1</dim>
					<dim>128</dim>
					<dim>28</dim>
					<dim>28</dim>
				</port>
			</output>
		</layer>
		<layer name="Concat_52" type="Concat" precision="FP32" id="45">
			<data axis="1" />
			<input>
				<port id="0">
					<dim>1</dim>
					<dim>128</dim>
					<dim>28</dim>
					<dim>28</dim>
				</port>
			</input>
			<output>
				<port id="1" precision="FP32">
					<dim>1</dim>
					<dim>128</dim>
					<dim>28</dim>
					<dim>28</dim>
				</port>
			</output>
		</layer>
		<layer name="Mul1_13781/Fused_Mul_/FusedScaleShift_" type="ScaleShift" precision="FP32" id="46">
			<data broadcast="0" />
			<input>
				<port id="0">
					<dim>1</dim>
					<dim>128</dim>
					<dim>28</dim>
					<dim>28</dim>
				</port>
			</input>
			<output>
				<port id="1" precision="FP32">
					<dim>1</dim>
					<dim>128</dim>
					<dim>28</dim>
					<dim>28</dim>
				</port>
			</output>
			<blobs>
				<biases offset="1508096" size="512" />
				<weights offset="1508608" size="512" />
			</blobs>
		</layer>
		<layer name="Relu_54" type="ReLU" precision="FP32" id="47">
			<input>
				<port id="0">
					<dim>1</dim>
					<dim>128</dim>
					<dim>28</dim>
					<dim>28</dim>
				</port>
			</input>
			<output>
				<port id="1" precision="FP32">
					<dim>1</dim>
					<dim>128</dim>
					<dim>28</dim>
					<dim>28</dim>
				</port>
			</output>
		</layer>
		<layer name="Conv_55" type="Convolution" precision="FP32" id="48">
			<data dilations="1,1" group="1" kernel="1,1" output="128" pads_begin="0,0" pads_end="0,0" quantization_level="I8" strides="1,1" />
			<input>
				<port id="0">
					<dim>1</dim>
					<dim>128</dim>
					<dim>28</dim>
					<dim>28</dim>
				</port>
			</input>
			<output>
				<port id="1" precision="FP32">
					<dim>1</dim>
					<dim>128</dim>
					<dim>28</dim>
					<dim>28</dim>
				</port>
			</output>
			<blobs>
				<biases offset="1509120" size="512" />
				<weights offset="1509632" size="65536" />
			</blobs>
		</layer>
		<layer name="Relu_57" type="ReLU" precision="FP32" id="49">
			<input>
				<port id="0">
					<dim>1</dim>
					<dim>128</dim>
					<dim>28</dim>
					<dim>28</dim>
				</port>
			</input>
			<output>
				<port id="1" precision="FP32">
					<dim>1</dim>
					<dim>128</dim>
					<dim>28</dim>
					<dim>28</dim>
				</port>
			</output>
		</layer>
		<layer name="Conv_58" type="Convolution" precision="FP32" id="50">
			<data dilations="1,1" group="1" kernel="3,3" output="32" pads_begin="1,1" pads_end="1,1" quantization_level="I8" strides="1,1" />
			<input>
				<port id="0">
					<dim>1</dim>
					<dim>128</dim>
					<dim>28</dim>
					<dim>28</dim>
				</port>
			</input>
			<output>
				<port id="1" precision="FP32">
					<dim>1</dim>
					<dim>32</dim>
					<dim>28</dim>
					<dim>28</dim>
				</port>
			</output>
			<blobs>
				<weights offset="1575168" size="147456" />
			</blobs>
		</layer>
		<layer name="Concat_59" type="Concat" precision="FP32" id="51">
			<data axis="1" />
			<input>
				<port id="0">
					<dim>1</dim>
					<dim>128</dim>
					<dim>28</dim>
					<dim>28</dim>
				</port>
				<port id="1">
					<dim>1</dim>
					<dim>32</dim>
					<dim>28</dim>
					<dim>28</dim>
				</port>
			</input>
			<output>
				<port id="2" precision="FP32">
					<dim>1</dim>
					<dim>160</dim>
					<dim>28</dim>
					<dim>28</dim>
				</port>
			</output>
		</layer>
		<layer name="Mul1_13805/Fused_Mul_/FusedScaleShift_" type="ScaleShift" precision="FP32" id="52">
			<data broadcast="0" />
			<input>
				<port id="0">
					<dim>1</dim>
					<dim>160</dim>
					<dim>28</dim>
					<dim>28</dim>
				</port>
			</input>
			<output>
				<port id="1" precision="FP32">
					<dim>1</dim>
					<dim>160</dim>
					<dim>28</dim>
					<dim>28</dim>
				</port>
			</output>
			<blobs>
				<biases offset="1722624" size="640" />
				<weights offset="1723264" size="640" />
			</blobs>
		</layer>
		<layer name="Relu_61" type="ReLU" precision="FP32" id="53">
			<input>
				<port id="0">
					<dim>1</dim>
					<dim>160</dim>
					<dim>28</dim>
					<dim>28</dim>
				</port>
			</input>
			<output>
				<port id="1" precision="FP32">
					<dim>1</dim>
					<dim>160</dim>
					<dim>28</dim>
					<dim>28</dim>
				</port>
			</output>
		</layer>
		<layer name="Conv_62" type="Convolution" precision="FP32" id="54">
			<data dilations="1,1" group="1" kernel="1,1" output="128" pads_begin="0,0" pads_end="0,0" quantization_level="I8" strides="1,1" />
			<input>
				<port id="0">
					<dim>1</dim>
					<dim>160</dim>
					<dim>28</dim>
					<dim>28</dim>
				</port>
			</input>
			<output>
				<port id="1" precision="FP32">
					<dim>1</dim>
					<dim>128</dim>
					<dim>28</dim>
					<dim>28</dim>
				</port>
			</output>
			<blobs>
				<biases offset="1723904" size="512" />
				<weights offset="1724416" size="81920" />
			</blobs>
		</layer>
		<layer name="Relu_64" type="ReLU" precision="FP32" id="55">
			<input>
				<port id="0">
					<dim>1</dim>
					<dim>128</dim>
					<dim>28</dim>
					<dim>28</dim>
				</port>
			</input>
			<output>
				<port id="1" precision="FP32">
					<dim>1</dim>
					<dim>128</dim>
					<dim>28</dim>
					<dim>28</dim>
				</port>
			</output>
		</layer>
		<layer name="Conv_65" type="Convolution" precision="FP32" id="56">
			<data dilations="1,1" group="1" kernel="3,3" output="32" pads_begin="1,1" pads_end="1,1" quantization_level="I8" strides="1,1" />
			<input>
				<port id="0">
					<dim>1</dim>
					<dim>128</dim>
					<dim>28</dim>
					<dim>28</dim>
				</port>
			</input>
			<output>
				<port id="1" precision="FP32">
					<dim>1</dim>
					<dim>32</dim>
					<dim>28</dim>
					<dim>28</dim>
				</port>
			</output>
			<blobs>
				<weights offset="1806336" size="147456" />
			</blobs>
		</layer>
		<layer name="Concat_66" type="Concat" precision="FP32" id="57">
			<data axis="1" />
			<input>
				<port id="0">
					<dim>1</dim>
					<dim>128</dim>
					<dim>28</dim>
					<dim>28</dim>
				</port>
				<port id="1">
					<dim>1</dim>
					<dim>32</dim>
					<dim>28</dim>
					<dim>28</dim>
				</port>
				<port id="2">
					<dim>1</dim>
					<dim>32</dim>
					<dim>28</dim>
					<dim>28</dim>
				</port>
			</input>
			<output>
				<port id="3" precision="FP32">
					<dim>1</dim>
					<dim>192</dim>
					<dim>28</dim>
					<dim>28</dim>
				</port>
			</output>
		</layer>
		<layer name="Mul1_13829/Fused_Mul_/FusedScaleShift_" type="ScaleShift" precision="FP32" id="58">
			<data broadcast="0" />
			<input>
				<port id="0">
					<dim>1</dim>
					<dim>192</dim>
					<dim>28</dim>
					<dim>28</dim>
				</port>
			</input>
			<output>
				<port id="1" precision="FP32">
					<dim>1</dim>
					<dim>192</dim>
					<dim>28</dim>
					<dim>28</dim>
				</port>
			</output>
			<blobs>
				<biases offset="1953792" size="768" />
				<weights offset="1954560" size="768" />
			</blobs>
		</layer>
		<layer name="Relu_68" type="ReLU" precision="FP32" id="59">
			<input>
				<port id="0">
					<dim>1</dim>
					<dim>192</dim>
					<dim>28</dim>
					<dim>28</dim>
				</port>
			</input>
			<output>
				<port id="1" precision="FP32">
					<dim>1</dim>
					<dim>192</dim>
					<dim>28</dim>
					<dim>28</dim>
				</port>
			</output>
		</layer>
		<layer name="Conv_69" type="Convolution" precision="FP32" id="60">
			<data dilations="1,1" group="1" kernel="1,1" output="128" pads_begin="0,0" pads_end="0,0" quantization_level="I8" strides="1,1" />
			<input>
				<port id="0">
					<dim>1</dim>
					<dim>192</dim>
					<dim>28</dim>
					<dim>28</dim>
				</port>
			</input>
			<output>
				<port id="1" precision="FP32">
					<dim>1</dim>
					<dim>128</dim>
					<dim>28</dim>
					<dim>28</dim>
				</port>
			</output>
			<blobs>
				<biases offset="1955328" size="512" />
				<weights offset="1955840" size="98304" />
			</blobs>
		</layer>
		<layer name="Relu_71" type="ReLU" precision="FP32" id="61">
			<input>
				<port id="0">
					<dim>1</dim>
					<dim>128</dim>
					<dim>28</dim>
					<dim>28</dim>
				</port>
			</input>
			<output>
				<port id="1" precision="FP32">
					<dim>1</dim>
					<dim>128</dim>
					<dim>28</dim>
					<dim>28</dim>
				</port>
			</output>
		</layer>
		<layer name="Conv_72" type="Convolution" precision="FP32" id="62">
			<data dilations="1,1" group="1" kernel="3,3" output="32" pads_begin="1,1" pads_end="1,1" quantization_level="I8" strides="1,1" />
			<input>
				<port id="0">
					<dim>1</dim>
					<dim>128</dim>
					<dim>28</dim>
					<dim>28</dim>
				</port>
			</input>
			<output>
				<port id="1" precision="FP32">
					<dim>1</dim>
					<dim>32</dim>
					<dim>28</dim>
					<dim>28</dim>
				</port>
			</output>
			<blobs>
				<weights offset="2054144" size="147456" />
			</blobs>
		</layer>
		<layer name="Concat_73" type="Concat" precision="FP32" id="63">
			<data axis="1" />
			<input>
				<port id="0">
					<dim>1</dim>
					<dim>128</dim>
					<dim>28</dim>
					<dim>28</dim>
				</port>
				<port id="1">
					<dim>1</dim>
					<dim>32</dim>
					<dim>28</dim>
					<dim>28</dim>
				</port>
				<port id="2">
					<dim>1</dim>
					<dim>32</dim>
					<dim>28</dim>
					<dim>28</dim>
				</port>
				<port id="3">
					<dim>1</dim>
					<dim>32</dim>
					<dim>28</dim>
					<dim>28</dim>
				</port>
			</input>
			<output>
				<port id="4" precision="FP32">
					<dim>1</dim>
					<dim>224</dim>
					<dim>28</dim>
					<dim>28</dim>
				</port>
			</output>
		</layer>
		<layer name="Mul1_13853/Fused_Mul_/FusedScaleShift_" type="ScaleShift" precision="FP32" id="64">
			<data broadcast="0" />
			<input>
				<port id="0">
					<dim>1</dim>
					<dim>224</dim>
					<dim>28</dim>
					<dim>28</dim>
				</port>
			</input>
			<output>
				<port id="1" precision="FP32">
					<dim>1</dim>
					<dim>224</dim>
					<dim>28</dim>
					<dim>28</dim>
				</port>
			</output>
			<blobs>
				<biases offset="2201600" size="896" />
				<weights offset="2202496" size="896" />
			</blobs>
		</layer>
		<layer name="Relu_75" type="ReLU" precision="FP32" id="65">
			<input>
				<port id="0">
					<dim>1</dim>
					<dim>224</dim>
					<dim>28</dim>
					<dim>28</dim>
				</port>
			</input>
			<output>
				<port id="1" precision="FP32">
					<dim>1</dim>
					<dim>224</dim>
					<dim>28</dim>
					<dim>28</dim>
				</port>
			</output>
		</layer>
		<layer name="Conv_76" type="Convolution" precision="FP32" id="66">
			<data dilations="1,1" group="1" kernel="1,1" output="128" pads_begin="0,0" pads_end="0,0" quantization_level="I8" strides="1,1" />
			<input>
				<port id="0">
					<dim>1</dim>
					<dim>224</dim>
					<dim>28</dim>
					<dim>28</dim>
				</port>
			</input>
			<output>
				<port id="1" precision="FP32">
					<dim>1</dim>
					<dim>128</dim>
					<dim>28</dim>
					<dim>28</dim>
				</port>
			</output>
			<blobs>
				<biases offset="2203392" size="512" />
				<weights offset="2203904" size="114688" />
			</blobs>
		</layer>
		<layer name="Relu_78" type="ReLU" precision="FP32" id="67">
			<input>
				<port id="0">
					<dim>1</dim>
					<dim>128</dim>
					<dim>28</dim>
					<dim>28</dim>
				</port>
			</input>
			<output>
				<port id="1" precision="FP32">
					<dim>1</dim>
					<dim>128</dim>
					<dim>28</dim>
					<dim>28</dim>
				</port>
			</output>
		</layer>
		<layer name="Conv_79" type="Convolution" precision="FP32" id="68">
			<data dilations="1,1" group="1" kernel="3,3" output="32" pads_begin="1,1" pads_end="1,1" quantization_level="I8" strides="1,1" />
			<input>
				<port id="0">
					<dim>1</dim>
					<dim>128</dim>
					<dim>28</dim>
					<dim>28</dim>
				</port>
			</input>
			<output>
				<port id="1" precision="FP32">
					<dim>1</dim>
					<dim>32</dim>
					<dim>28</dim>
					<dim>28</dim>
				</port>
			</output>
			<blobs>
				<weights offset="2318592" size="147456" />
			</blobs>
		</layer>
		<layer name="Concat_80" type="Concat" precision="FP32" id="69">
			<data axis="1" />
			<input>
				<port id="0">
					<dim>1</dim>
					<dim>128</dim>
					<dim>28</dim>
					<dim>28</dim>
				</port>
				<port id="1">
					<dim>1</dim>
					<dim>32</dim>
					<dim>28</dim>
					<dim>28</dim>
				</port>
				<port id="2">
					<dim>1</dim>
					<dim>32</dim>
					<dim>28</dim>
					<dim>28</dim>
				</port>
				<port id="3">
					<dim>1</dim>
					<dim>32</dim>
					<dim>28</dim>
					<dim>28</dim>
				</port>
				<port id="4">
					<dim>1</dim>
					<dim>32</dim>
					<dim>28</dim>
					<dim>28</dim>
				</port>
			</input>
			<output>
				<port id="5" precision="FP32">
					<dim>1</dim>
					<dim>256</dim>
					<dim>28</dim>
					<dim>28</dim>
				</port>
			</output>
		</layer>
		<layer name="Mul1_13877/Fused_Mul_/FusedScaleShift_" type="ScaleShift" precision="FP32" id="70">
			<data broadcast="0" />
			<input>
				<port id="0">
					<dim>1</dim>
					<dim>256</dim>
					<dim>28</dim>
					<dim>28</dim>
				</port>
			</input>
			<output>
				<port id="1" precision="FP32">
					<dim>1</dim>
					<dim>256</dim>
					<dim>28</dim>
					<dim>28</dim>
				</port>
			</output>
			<blobs>
				<biases offset="2466048" size="1024" />
				<weights offset="2467072" size="1024" />
			</blobs>
		</layer>
		<layer name="Relu_82" type="ReLU" precision="FP32" id="71">
			<input>
				<port id="0">
					<dim>1</dim>
					<dim>256</dim>
					<dim>28</dim>
					<dim>28</dim>
				</port>
			</input>
			<output>
				<port id="1" precision="FP32">
					<dim>1</dim>
					<dim>256</dim>
					<dim>28</dim>
					<dim>28</dim>
				</port>
			</output>
		</layer>
		<layer name="Conv_83" type="Convolution" precision="FP32" id="72">
			<data dilations="1,1" group="1" kernel="1,1" output="128" pads_begin="0,0" pads_end="0,0" quantization_level="I8" strides="1,1" />
			<input>
				<port id="0">
					<dim>1</dim>
					<dim>256</dim>
					<dim>28</dim>
					<dim>28</dim>
				</port>
			</input>
			<output>
				<port id="1" precision="FP32">
					<dim>1</dim>
					<dim>128</dim>
					<dim>28</dim>
					<dim>28</dim>
				</port>
			</output>
			<blobs>
				<biases offset="2468096" size="512" />
				<weights offset="2468608" size="131072" />
			</blobs>
		</layer>
		<layer name="Relu_85" type="ReLU" precision="FP32" id="73">
			<input>
				<port id="0">
					<dim>1</dim>
					<dim>128</dim>
					<dim>28</dim>
					<dim>28</dim>
				</port>
			</input>
			<output>
				<port id="1" precision="FP32">
					<dim>1</dim>
					<dim>128</dim>
					<dim>28</dim>
					<dim>28</dim>
				</port>
			</output>
		</layer>
		<layer name="Conv_86" type="Convolution" precision="FP32" id="74">
			<data dilations="1,1" group="1" kernel="3,3" output="32" pads_begin="1,1" pads_end="1,1" quantization_level="I8" strides="1,1" />
			<input>
				<port id="0">
					<dim>1</dim>
					<dim>128</dim>
					<dim>28</dim>
					<dim>28</dim>
				</port>
			</input>
			<output>
				<port id="1" precision="FP32">
					<dim>1</dim>
					<dim>32</dim>
					<dim>28</dim>
					<dim>28</dim>
				</port>
			</output>
			<blobs>
				<weights offset="2599680" size="147456" />
			</blobs>
		</layer>
		<layer name="Concat_87" type="Concat" precision="FP32" id="75">
			<data axis="1" />
			<input>
				<port id="0">
					<dim>1</dim>
					<dim>128</dim>
					<dim>28</dim>
					<dim>28</dim>
				</port>
				<port id="1">
					<dim>1</dim>
					<dim>32</dim>
					<dim>28</dim>
					<dim>28</dim>
				</port>
				<port id="2">
					<dim>1</dim>
					<dim>32</dim>
					<dim>28</dim>
					<dim>28</dim>
				</port>
				<port id="3">
					<dim>1</dim>
					<dim>32</dim>
					<dim>28</dim>
					<dim>28</dim>
				</port>
				<port id="4">
					<dim>1</dim>
					<dim>32</dim>
					<dim>28</dim>
					<dim>28</dim>
				</port>
				<port id="5">
					<dim>1</dim>
					<dim>32</dim>
					<dim>28</dim>
					<dim>28</dim>
				</port>
			</input>
			<output>
				<port id="6" precision="FP32">
					<dim>1</dim>
					<dim>288</dim>
					<dim>28</dim>
					<dim>28</dim>
				</port>
			</output>
		</layer>
		<layer name="Mul1_13901/Fused_Mul_/FusedScaleShift_" type="ScaleShift" precision="FP32" id="76">
			<data broadcast="0" />
			<input>
				<port id="0">
					<dim>1</dim>
					<dim>288</dim>
					<dim>28</dim>
					<dim>28</dim>
				</port>
			</input>
			<output>
				<port id="1" precision="FP32">
					<dim>1</dim>
					<dim>288</dim>
					<dim>28</dim>
					<dim>28</dim>
				</port>
			</output>
			<blobs>
				<biases offset="2747136" size="1152" />
				<weights offset="2748288" size="1152" />
			</blobs>
		</layer>
		<layer name="Relu_89" type="ReLU" precision="FP32" id="77">
			<input>
				<port id="0">
					<dim>1</dim>
					<dim>288</dim>
					<dim>28</dim>
					<dim>28</dim>
				</port>
			</input>
			<output>
				<port id="1" precision="FP32">
					<dim>1</dim>
					<dim>288</dim>
					<dim>28</dim>
					<dim>28</dim>
				</port>
			</output>
		</layer>
		<layer name="Conv_90" type="Convolution" precision="FP32" id="78">
			<data dilations="1,1" group="1" kernel="1,1" output="128" pads_begin="0,0" pads_end="0,0" quantization_level="I8" strides="1,1" />
			<input>
				<port id="0">
					<dim>1</dim>
					<dim>288</dim>
					<dim>28</dim>
					<dim>28</dim>
				</port>
			</input>
			<output>
				<port id="1" precision="FP32">
					<dim>1</dim>
					<dim>128</dim>
					<dim>28</dim>
					<dim>28</dim>
				</port>
			</output>
			<blobs>
				<biases offset="2749440" size="512" />
				<weights offset="2749952" size="147456" />
			</blobs>
		</layer>
		<layer name="Relu_92" type="ReLU" precision="FP32" id="79">
			<input>
				<port id="0">
					<dim>1</dim>
					<dim>128</dim>
					<dim>28</dim>
					<dim>28</dim>
				</port>
			</input>
			<output>
				<port id="1" precision="FP32">
					<dim>1</dim>
					<dim>128</dim>
					<dim>28</dim>
					<dim>28</dim>
				</port>
			</output>
		</layer>
		<layer name="Conv_93" type="Convolution" precision="FP32" id="80">
			<data dilations="1,1" group="1" kernel="3,3" output="32" pads_begin="1,1" pads_end="1,1" quantization_level="I8" strides="1,1" />
			<input>
				<port id="0">
					<dim>1</dim>
					<dim>128</dim>
					<dim>28</dim>
					<dim>28</dim>
				</port>
			</input>
			<output>
				<port id="1" precision="FP32">
					<dim>1</dim>
					<dim>32</dim>
					<dim>28</dim>
					<dim>28</dim>
				</port>
			</output>
			<blobs>
				<weights offset="2897408" size="147456" />
			</blobs>
		</layer>
		<layer name="Concat_94" type="Concat" precision="FP32" id="81">
			<data axis="1" />
			<input>
				<port id="0">
					<dim>1</dim>
					<dim>128</dim>
					<dim>28</dim>
					<dim>28</dim>
				</port>
				<port id="1">
					<dim>1</dim>
					<dim>32</dim>
					<dim>28</dim>
					<dim>28</dim>
				</port>
				<port id="2">
					<dim>1</dim>
					<dim>32</dim>
					<dim>28</dim>
					<dim>28</dim>
				</port>
				<port id="3">
					<dim>1</dim>
					<dim>32</dim>
					<dim>28</dim>
					<dim>28</dim>
				</port>
				<port id="4">
					<dim>1</dim>
					<dim>32</dim>
					<dim>28</dim>
					<dim>28</dim>
				</port>
				<port id="5">
					<dim>1</dim>
					<dim>32</dim>
					<dim>28</dim>
					<dim>28</dim>
				</port>
				<port id="6">
					<dim>1</dim>
					<dim>32</dim>
					<dim>28</dim>
					<dim>28</dim>
				</port>
			</input>
			<output>
				<port id="7" precision="FP32">
					<dim>1</dim>
					<dim>320</dim>
					<dim>28</dim>
					<dim>28</dim>
				</port>
			</output>
		</layer>
		<layer name="Mul1_13925/Fused_Mul_/FusedScaleShift_" type="ScaleShift" precision="FP32" id="82">
			<data broadcast="0" />
			<input>
				<port id="0">
					<dim>1</dim>
					<dim>320</dim>
					<dim>28</dim>
					<dim>28</dim>
				</port>
			</input>
			<output>
				<port id="1" precision="FP32">
					<dim>1</dim>
					<dim>320</dim>
					<dim>28</dim>
					<dim>28</dim>
				</port>
			</output>
			<blobs>
				<biases offset="3044864" size="1280" />
				<weights offset="3046144" size="1280" />
			</blobs>
		</layer>
		<layer name="Relu_96" type="ReLU" precision="FP32" id="83">
			<input>
				<port id="0">
					<dim>1</dim>
					<dim>320</dim>
					<dim>28</dim>
					<dim>28</dim>
				</port>
			</input>
			<output>
				<port id="1" precision="FP32">
					<dim>1</dim>
					<dim>320</dim>
					<dim>28</dim>
					<dim>28</dim>
				</port>
			</output>
		</layer>
		<layer name="Conv_97" type="Convolution" precision="FP32" id="84">
			<data dilations="1,1" group="1" kernel="1,1" output="128" pads_begin="0,0" pads_end="0,0" quantization_level="I8" strides="1,1" />
			<input>
				<port id="0">
					<dim>1</dim>
					<dim>320</dim>
					<dim>28</dim>
					<dim>28</dim>
				</port>
			</input>
			<output>
				<port id="1" precision="FP32">
					<dim>1</dim>
					<dim>128</dim>
					<dim>28</dim>
					<dim>28</dim>
				</port>
			</output>
			<blobs>
				<biases offset="3047424" size="512" />
				<weights offset="3047936" size="163840" />
			</blobs>
		</layer>
		<layer name="Relu_99" type="ReLU" precision="FP32" id="85">
			<input>
				<port id="0">
					<dim>1</dim>
					<dim>128</dim>
					<dim>28</dim>
					<dim>28</dim>
				</port>
			</input>
			<output>
				<port id="1" precision="FP32">
					<dim>1</dim>
					<dim>128</dim>
					<dim>28</dim>
					<dim>28</dim>
				</port>
			</output>
		</layer>
		<layer name="Conv_100" type="Convolution" precision="FP32" id="86">
			<data dilations="1,1" group="1" kernel="3,3" output="32" pads_begin="1,1" pads_end="1,1" quantization_level="I8" strides="1,1" />
			<input>
				<port id="0">
					<dim>1</dim>
					<dim>128</dim>
					<dim>28</dim>
					<dim>28</dim>
				</port>
			</input>
			<output>
				<port id="1" precision="FP32">
					<dim>1</dim>
					<dim>32</dim>
					<dim>28</dim>
					<dim>28</dim>
				</port>
			</output>
			<blobs>
				<weights offset="3211776" size="147456" />
			</blobs>
		</layer>
		<layer name="Concat_101" type="Concat" precision="FP32" id="87">
			<data axis="1" />
			<input>
				<port id="0">
					<dim>1</dim>
					<dim>128</dim>
					<dim>28</dim>
					<dim>28</dim>
				</port>
				<port id="1">
					<dim>1</dim>
					<dim>32</dim>
					<dim>28</dim>
					<dim>28</dim>
				</port>
				<port id="2">
					<dim>1</dim>
					<dim>32</dim>
					<dim>28</dim>
					<dim>28</dim>
				</port>
				<port id="3">
					<dim>1</dim>
					<dim>32</dim>
					<dim>28</dim>
					<dim>28</dim>
				</port>
				<port id="4">
					<dim>1</dim>
					<dim>32</dim>
					<dim>28</dim>
					<dim>28</dim>
				</port>
				<port id="5">
					<dim>1</dim>
					<dim>32</dim>
					<dim>28</dim>
					<dim>28</dim>
				</port>
				<port id="6">
					<dim>1</dim>
					<dim>32</dim>
					<dim>28</dim>
					<dim>28</dim>
				</port>
				<port id="7">
					<dim>1</dim>
					<dim>32</dim>
					<dim>28</dim>
					<dim>28</dim>
				</port>
			</input>
			<output>
				<port id="8" precision="FP32">
					<dim>1</dim>
					<dim>352</dim>
					<dim>28</dim>
					<dim>28</dim>
				</port>
			</output>
		</layer>
		<layer name="Mul1_13949/Fused_Mul_/FusedScaleShift_" type="ScaleShift" precision="FP32" id="88">
			<data broadcast="0" />
			<input>
				<port id="0">
					<dim>1</dim>
					<dim>352</dim>
					<dim>28</dim>
					<dim>28</dim>
				</port>
			</input>
			<output>
				<port id="1" precision="FP32">
					<dim>1</dim>
					<dim>352</dim>
					<dim>28</dim>
					<dim>28</dim>
				</port>
			</output>
			<blobs>
				<biases offset="3359232" size="1408" />
				<weights offset="3360640" size="1408" />
			</blobs>
		</layer>
		<layer name="Relu_103" type="ReLU" precision="FP32" id="89">
			<input>
				<port id="0">
					<dim>1</dim>
					<dim>352</dim>
					<dim>28</dim>
					<dim>28</dim>
				</port>
			</input>
			<output>
				<port id="1" precision="FP32">
					<dim>1</dim>
					<dim>352</dim>
					<dim>28</dim>
					<dim>28</dim>
				</port>
			</output>
		</layer>
		<layer name="Conv_104" type="Convolution" precision="FP32" id="90">
			<data dilations="1,1" group="1" kernel="1,1" output="128" pads_begin="0,0" pads_end="0,0" quantization_level="I8" strides="1,1" />
			<input>
				<port id="0">
					<dim>1</dim>
					<dim>352</dim>
					<dim>28</dim>
					<dim>28</dim>
				</port>
			</input>
			<output>
				<port id="1" precision="FP32">
					<dim>1</dim>
					<dim>128</dim>
					<dim>28</dim>
					<dim>28</dim>
				</port>
			</output>
			<blobs>
				<biases offset="3362048" size="512" />
				<weights offset="3362560" size="180224" />
			</blobs>
		</layer>
		<layer name="Relu_106" type="ReLU" precision="FP32" id="91">
			<input>
				<port id="0">
					<dim>1</dim>
					<dim>128</dim>
					<dim>28</dim>
					<dim>28</dim>
				</port>
			</input>
			<output>
				<port id="1" precision="FP32">
					<dim>1</dim>
					<dim>128</dim>
					<dim>28</dim>
					<dim>28</dim>
				</port>
			</output>
		</layer>
		<layer name="Conv_107" type="Convolution" precision="FP32" id="92">
			<data dilations="1,1" group="1" kernel="3,3" output="32" pads_begin="1,1" pads_end="1,1" quantization_level="I8" strides="1,1" />
			<input>
				<port id="0">
					<dim>1</dim>
					<dim>128</dim>
					<dim>28</dim>
					<dim>28</dim>
				</port>
			</input>
			<output>
				<port id="1" precision="FP32">
					<dim>1</dim>
					<dim>32</dim>
					<dim>28</dim>
					<dim>28</dim>
				</port>
			</output>
			<blobs>
				<weights offset="3542784" size="147456" />
			</blobs>
		</layer>
		<layer name="Concat_108" type="Concat" precision="FP32" id="93">
			<data axis="1" />
			<input>
				<port id="0">
					<dim>1</dim>
					<dim>128</dim>
					<dim>28</dim>
					<dim>28</dim>
				</port>
				<port id="1">
					<dim>1</dim>
					<dim>32</dim>
					<dim>28</dim>
					<dim>28</dim>
				</port>
				<port id="2">
					<dim>1</dim>
					<dim>32</dim>
					<dim>28</dim>
					<dim>28</dim>
				</port>
				<port id="3">
					<dim>1</dim>
					<dim>32</dim>
					<dim>28</dim>
					<dim>28</dim>
				</port>
				<port id="4">
					<dim>1</dim>
					<dim>32</dim>
					<dim>28</dim>
					<dim>28</dim>
				</port>
				<port id="5">
					<dim>1</dim>
					<dim>32</dim>
					<dim>28</dim>
					<dim>28</dim>
				</port>
				<port id="6">
					<dim>1</dim>
					<dim>32</dim>
					<dim>28</dim>
					<dim>28</dim>
				</port>
				<port id="7">
					<dim>1</dim>
					<dim>32</dim>
					<dim>28</dim>
					<dim>28</dim>
				</port>
				<port id="8">
					<dim>1</dim>
					<dim>32</dim>
					<dim>28</dim>
					<dim>28</dim>
				</port>
			</input>
			<output>
				<port id="9" precision="FP32">
					<dim>1</dim>
					<dim>384</dim>
					<dim>28</dim>
					<dim>28</dim>
				</port>
			</output>
		</layer>
		<layer name="Mul1_13973/Fused_Mul_/FusedScaleShift_" type="ScaleShift" precision="FP32" id="94">
			<data broadcast="0" />
			<input>
				<port id="0">
					<dim>1</dim>
					<dim>384</dim>
					<dim>28</dim>
					<dim>28</dim>
				</port>
			</input>
			<output>
				<port id="1" precision="FP32">
					<dim>1</dim>
					<dim>384</dim>
					<dim>28</dim>
					<dim>28</dim>
				</port>
			</output>
			<blobs>
				<biases offset="3690240" size="1536" />
				<weights offset="3691776" size="1536" />
			</blobs>
		</layer>
		<layer name="Relu_110" type="ReLU" precision="FP32" id="95">
			<input>
				<port id="0">
					<dim>1</dim>
					<dim>384</dim>
					<dim>28</dim>
					<dim>28</dim>
				</port>
			</input>
			<output>
				<port id="1" precision="FP32">
					<dim>1</dim>
					<dim>384</dim>
					<dim>28</dim>
					<dim>28</dim>
				</port>
			</output>
		</layer>
		<layer name="Conv_111" type="Convolution" precision="FP32" id="96">
			<data dilations="1,1" group="1" kernel="1,1" output="128" pads_begin="0,0" pads_end="0,0" quantization_level="I8" strides="1,1" />
			<input>
				<port id="0">
					<dim>1</dim>
					<dim>384</dim>
					<dim>28</dim>
					<dim>28</dim>
				</port>
			</input>
			<output>
				<port id="1" precision="FP32">
					<dim>1</dim>
					<dim>128</dim>
					<dim>28</dim>
					<dim>28</dim>
				</port>
			</output>
			<blobs>
				<biases offset="3693312" size="512" />
				<weights offset="3693824" size="196608" />
			</blobs>
		</layer>
		<layer name="Relu_113" type="ReLU" precision="FP32" id="97">
			<input>
				<port id="0">
					<dim>1</dim>
					<dim>128</dim>
					<dim>28</dim>
					<dim>28</dim>
				</port>
			</input>
			<output>
				<port id="1" precision="FP32">
					<dim>1</dim>
					<dim>128</dim>
					<dim>28</dim>
					<dim>28</dim>
				</port>
			</output>
		</layer>
		<layer name="Conv_114" type="Convolution" precision="FP32" id="98">
			<data dilations="1,1" group="1" kernel="3,3" output="32" pads_begin="1,1" pads_end="1,1" quantization_level="I8" strides="1,1" />
			<input>
				<port id="0">
					<dim>1</dim>
					<dim>128</dim>
					<dim>28</dim>
					<dim>28</dim>
				</port>
			</input>
			<output>
				<port id="1" precision="FP32">
					<dim>1</dim>
					<dim>32</dim>
					<dim>28</dim>
					<dim>28</dim>
				</port>
			</output>
			<blobs>
				<weights offset="3890432" size="147456" />
			</blobs>
		</layer>
		<layer name="Concat_115" type="Concat" precision="FP32" id="99">
			<data axis="1" />
			<input>
				<port id="0">
					<dim>1</dim>
					<dim>128</dim>
					<dim>28</dim>
					<dim>28</dim>
				</port>
				<port id="1">
					<dim>1</dim>
					<dim>32</dim>
					<dim>28</dim>
					<dim>28</dim>
				</port>
				<port id="2">
					<dim>1</dim>
					<dim>32</dim>
					<dim>28</dim>
					<dim>28</dim>
				</port>
				<port id="3">
					<dim>1</dim>
					<dim>32</dim>
					<dim>28</dim>
					<dim>28</dim>
				</port>
				<port id="4">
					<dim>1</dim>
					<dim>32</dim>
					<dim>28</dim>
					<dim>28</dim>
				</port>
				<port id="5">
					<dim>1</dim>
					<dim>32</dim>
					<dim>28</dim>
					<dim>28</dim>
				</port>
				<port id="6">
					<dim>1</dim>
					<dim>32</dim>
					<dim>28</dim>
					<dim>28</dim>
				</port>
				<port id="7">
					<dim>1</dim>
					<dim>32</dim>
					<dim>28</dim>
					<dim>28</dim>
				</port>
				<port id="8">
					<dim>1</dim>
					<dim>32</dim>
					<dim>28</dim>
					<dim>28</dim>
				</port>
				<port id="9">
					<dim>1</dim>
					<dim>32</dim>
					<dim>28</dim>
					<dim>28</dim>
				</port>
			</input>
			<output>
				<port id="10" precision="FP32">
					<dim>1</dim>
					<dim>416</dim>
					<dim>28</dim>
					<dim>28</dim>
				</port>
			</output>
		</layer>
		<layer name="Mul1_13997/Fused_Mul_/FusedScaleShift_" type="ScaleShift" precision="FP32" id="100">
			<data broadcast="0" />
			<input>
				<port id="0">
					<dim>1</dim>
					<dim>416</dim>
					<dim>28</dim>
					<dim>28</dim>
				</port>
			</input>
			<output>
				<port id="1" precision="FP32">
					<dim>1</dim>
					<dim>416</dim>
					<dim>28</dim>
					<dim>28</dim>
				</port>
			</output>
			<blobs>
				<biases offset="4037888" size="1664" />
				<weights offset="4039552" size="1664" />
			</blobs>
		</layer>
		<layer name="Relu_117" type="ReLU" precision="FP32" id="101">
			<input>
				<port id="0">
					<dim>1</dim>
					<dim>416</dim>
					<dim>28</dim>
					<dim>28</dim>
				</port>
			</input>
			<output>
				<port id="1" precision="FP32">
					<dim>1</dim>
					<dim>416</dim>
					<dim>28</dim>
					<dim>28</dim>
				</port>
			</output>
		</layer>
		<layer name="Conv_118" type="Convolution" precision="FP32" id="102">
			<data dilations="1,1" group="1" kernel="1,1" output="128" pads_begin="0,0" pads_end="0,0" quantization_level="I8" strides="1,1" />
			<input>
				<port id="0">
					<dim>1</dim>
					<dim>416</dim>
					<dim>28</dim>
					<dim>28</dim>
				</port>
			</input>
			<output>
				<port id="1" precision="FP32">
					<dim>1</dim>
					<dim>128</dim>
					<dim>28</dim>
					<dim>28</dim>
				</port>
			</output>
			<blobs>
				<biases offset="4041216" size="512" />
				<weights offset="4041728" size="212992" />
			</blobs>
		</layer>
		<layer name="Relu_120" type="ReLU" precision="FP32" id="103">
			<input>
				<port id="0">
					<dim>1</dim>
					<dim>128</dim>
					<dim>28</dim>
					<dim>28</dim>
				</port>
			</input>
			<output>
				<port id="1" precision="FP32">
					<dim>1</dim>
					<dim>128</dim>
					<dim>28</dim>
					<dim>28</dim>
				</port>
			</output>
		</layer>
		<layer name="Conv_121" type="Convolution" precision="FP32" id="104">
			<data dilations="1,1" group="1" kernel="3,3" output="32" pads_begin="1,1" pads_end="1,1" quantization_level="I8" strides="1,1" />
			<input>
				<port id="0">
					<dim>1</dim>
					<dim>128</dim>
					<dim>28</dim>
					<dim>28</dim>
				</port>
			</input>
			<output>
				<port id="1" precision="FP32">
					<dim>1</dim>
					<dim>32</dim>
					<dim>28</dim>
					<dim>28</dim>
				</port>
			</output>
			<blobs>
				<weights offset="4254720" size="147456" />
			</blobs>
		</layer>
		<layer name="Concat_122" type="Concat" precision="FP32" id="105">
			<data axis="1" />
			<input>
				<port id="0">
					<dim>1</dim>
					<dim>128</dim>
					<dim>28</dim>
					<dim>28</dim>
				</port>
				<port id="1">
					<dim>1</dim>
					<dim>32</dim>
					<dim>28</dim>
					<dim>28</dim>
				</port>
				<port id="2">
					<dim>1</dim>
					<dim>32</dim>
					<dim>28</dim>
					<dim>28</dim>
				</port>
				<port id="3">
					<dim>1</dim>
					<dim>32</dim>
					<dim>28</dim>
					<dim>28</dim>
				</port>
				<port id="4">
					<dim>1</dim>
					<dim>32</dim>
					<dim>28</dim>
					<dim>28</dim>
				</port>
				<port id="5">
					<dim>1</dim>
					<dim>32</dim>
					<dim>28</dim>
					<dim>28</dim>
				</port>
				<port id="6">
					<dim>1</dim>
					<dim>32</dim>
					<dim>28</dim>
					<dim>28</dim>
				</port>
				<port id="7">
					<dim>1</dim>
					<dim>32</dim>
					<dim>28</dim>
					<dim>28</dim>
				</port>
				<port id="8">
					<dim>1</dim>
					<dim>32</dim>
					<dim>28</dim>
					<dim>28</dim>
				</port>
				<port id="9">
					<dim>1</dim>
					<dim>32</dim>
					<dim>28</dim>
					<dim>28</dim>
				</port>
				<port id="10">
					<dim>1</dim>
					<dim>32</dim>
					<dim>28</dim>
					<dim>28</dim>
				</port>
			</input>
			<output>
				<port id="11" precision="FP32">
					<dim>1</dim>
					<dim>448</dim>
					<dim>28</dim>
					<dim>28</dim>
				</port>
			</output>
		</layer>
		<layer name="Mul1_14021/Fused_Mul_/FusedScaleShift_" type="ScaleShift" precision="FP32" id="106">
			<data broadcast="0" />
			<input>
				<port id="0">
					<dim>1</dim>
					<dim>448</dim>
					<dim>28</dim>
					<dim>28</dim>
				</port>
			</input>
			<output>
				<port id="1" precision="FP32">
					<dim>1</dim>
					<dim>448</dim>
					<dim>28</dim>
					<dim>28</dim>
				</port>
			</output>
			<blobs>
				<biases offset="4402176" size="1792" />
				<weights offset="4403968" size="1792" />
			</blobs>
		</layer>
		<layer name="Relu_124" type="ReLU" precision="FP32" id="107">
			<input>
				<port id="0">
					<dim>1</dim>
					<dim>448</dim>
					<dim>28</dim>
					<dim>28</dim>
				</port>
			</input>
			<output>
				<port id="1" precision="FP32">
					<dim>1</dim>
					<dim>448</dim>
					<dim>28</dim>
					<dim>28</dim>
				</port>
			</output>
		</layer>
		<layer name="Conv_125" type="Convolution" precision="FP32" id="108">
			<data dilations="1,1" group="1" kernel="1,1" output="128" pads_begin="0,0" pads_end="0,0" quantization_level="I8" strides="1,1" />
			<input>
				<port id="0">
					<dim>1</dim>
					<dim>448</dim>
					<dim>28</dim>
					<dim>28</dim>
				</port>
			</input>
			<output>
				<port id="1" precision="FP32">
					<dim>1</dim>
					<dim>128</dim>
					<dim>28</dim>
					<dim>28</dim>
				</port>
			</output>
			<blobs>
				<biases offset="4405760" size="512" />
				<weights offset="4406272" size="229376" />
			</blobs>
		</layer>
		<layer name="Relu_127" type="ReLU" precision="FP32" id="109">
			<input>
				<port id="0">
					<dim>1</dim>
					<dim>128</dim>
					<dim>28</dim>
					<dim>28</dim>
				</port>
			</input>
			<output>
				<port id="1" precision="FP32">
					<dim>1</dim>
					<dim>128</dim>
					<dim>28</dim>
					<dim>28</dim>
				</port>
			</output>
		</layer>
		<layer name="Conv_128" type="Convolution" precision="FP32" id="110">
			<data dilations="1,1" group="1" kernel="3,3" output="32" pads_begin="1,1" pads_end="1,1" quantization_level="I8" strides="1,1" />
			<input>
				<port id="0">
					<dim>1</dim>
					<dim>128</dim>
					<dim>28</dim>
					<dim>28</dim>
				</port>
			</input>
			<output>
				<port id="1" precision="FP32">
					<dim>1</dim>
					<dim>32</dim>
					<dim>28</dim>
					<dim>28</dim>
				</port>
			</output>
			<blobs>
				<weights offset="4635648" size="147456" />
			</blobs>
		</layer>
		<layer name="Concat_129" type="Concat" precision="FP32" id="111">
			<data axis="1" />
			<input>
				<port id="0">
					<dim>1</dim>
					<dim>128</dim>
					<dim>28</dim>
					<dim>28</dim>
				</port>
				<port id="1">
					<dim>1</dim>
					<dim>32</dim>
					<dim>28</dim>
					<dim>28</dim>
				</port>
				<port id="2">
					<dim>1</dim>
					<dim>32</dim>
					<dim>28</dim>
					<dim>28</dim>
				</port>
				<port id="3">
					<dim>1</dim>
					<dim>32</dim>
					<dim>28</dim>
					<dim>28</dim>
				</port>
				<port id="4">
					<dim>1</dim>
					<dim>32</dim>
					<dim>28</dim>
					<dim>28</dim>
				</port>
				<port id="5">
					<dim>1</dim>
					<dim>32</dim>
					<dim>28</dim>
					<dim>28</dim>
				</port>
				<port id="6">
					<dim>1</dim>
					<dim>32</dim>
					<dim>28</dim>
					<dim>28</dim>
				</port>
				<port id="7">
					<dim>1</dim>
					<dim>32</dim>
					<dim>28</dim>
					<dim>28</dim>
				</port>
				<port id="8">
					<dim>1</dim>
					<dim>32</dim>
					<dim>28</dim>
					<dim>28</dim>
				</port>
				<port id="9">
					<dim>1</dim>
					<dim>32</dim>
					<dim>28</dim>
					<dim>28</dim>
				</port>
				<port id="10">
					<dim>1</dim>
					<dim>32</dim>
					<dim>28</dim>
					<dim>28</dim>
				</port>
				<port id="11">
					<dim>1</dim>
					<dim>32</dim>
					<dim>28</dim>
					<dim>28</dim>
				</port>
			</input>
			<output>
				<port id="12" precision="FP32">
					<dim>1</dim>
					<dim>480</dim>
					<dim>28</dim>
					<dim>28</dim>
				</port>
			</output>
		</layer>
		<layer name="Mul1_14045/Fused_Mul_/FusedScaleShift_" type="ScaleShift" precision="FP32" id="112">
			<data broadcast="0" />
			<input>
				<port id="0">
					<dim>1</dim>
					<dim>480</dim>
					<dim>28</dim>
					<dim>28</dim>
				</port>
			</input>
			<output>
				<port id="1" precision="FP32">
					<dim>1</dim>
					<dim>480</dim>
					<dim>28</dim>
					<dim>28</dim>
				</port>
			</output>
			<blobs>
				<biases offset="4783104" size="1920" />
				<weights offset="4785024" size="1920" />
			</blobs>
		</layer>
		<layer name="Relu_131" type="ReLU" precision="FP32" id="113">
			<input>
				<port id="0">
					<dim>1</dim>
					<dim>480</dim>
					<dim>28</dim>
					<dim>28</dim>
				</port>
			</input>
			<output>
				<port id="1" precision="FP32">
					<dim>1</dim>
					<dim>480</dim>
					<dim>28</dim>
					<dim>28</dim>
				</port>
			</output>
		</layer>
		<layer name="Conv_132" type="Convolution" precision="FP32" id="114">
			<data dilations="1,1" group="1" kernel="1,1" output="128" pads_begin="0,0" pads_end="0,0" quantization_level="I8" strides="1,1" />
			<input>
				<port id="0">
					<dim>1</dim>
					<dim>480</dim>
					<dim>28</dim>
					<dim>28</dim>
				</port>
			</input>
			<output>
				<port id="1" precision="FP32">
					<dim>1</dim>
					<dim>128</dim>
					<dim>28</dim>
					<dim>28</dim>
				</port>
			</output>
			<blobs>
				<biases offset="4786944" size="512" />
				<weights offset="4787456" size="245760" />
			</blobs>
		</layer>
		<layer name="Relu_134" type="ReLU" precision="FP32" id="115">
			<input>
				<port id="0">
					<dim>1</dim>
					<dim>128</dim>
					<dim>28</dim>
					<dim>28</dim>
				</port>
			</input>
			<output>
				<port id="1" precision="FP32">
					<dim>1</dim>
					<dim>128</dim>
					<dim>28</dim>
					<dim>28</dim>
				</port>
			</output>
		</layer>
		<layer name="Conv_135" type="Convolution" precision="FP32" id="116">
			<data dilations="1,1" group="1" kernel="3,3" output="32" pads_begin="1,1" pads_end="1,1" quantization_level="I8" strides="1,1" />
			<input>
				<port id="0">
					<dim>1</dim>
					<dim>128</dim>
					<dim>28</dim>
					<dim>28</dim>
				</port>
			</input>
			<output>
				<port id="1" precision="FP32">
					<dim>1</dim>
					<dim>32</dim>
					<dim>28</dim>
					<dim>28</dim>
				</port>
			</output>
			<blobs>
				<weights offset="5033216" size="147456" />
			</blobs>
		</layer>
		<layer name="Concat_136" type="Concat" precision="FP32" id="117">
			<data axis="1" />
			<input>
				<port id="0">
					<dim>1</dim>
					<dim>128</dim>
					<dim>28</dim>
					<dim>28</dim>
				</port>
				<port id="1">
					<dim>1</dim>
					<dim>32</dim>
					<dim>28</dim>
					<dim>28</dim>
				</port>
				<port id="2">
					<dim>1</dim>
					<dim>32</dim>
					<dim>28</dim>
					<dim>28</dim>
				</port>
				<port id="3">
					<dim>1</dim>
					<dim>32</dim>
					<dim>28</dim>
					<dim>28</dim>
				</port>
				<port id="4">
					<dim>1</dim>
					<dim>32</dim>
					<dim>28</dim>
					<dim>28</dim>
				</port>
				<port id="5">
					<dim>1</dim>
					<dim>32</dim>
					<dim>28</dim>
					<dim>28</dim>
				</port>
				<port id="6">
					<dim>1</dim>
					<dim>32</dim>
					<dim>28</dim>
					<dim>28</dim>
				</port>
				<port id="7">
					<dim>1</dim>
					<dim>32</dim>
					<dim>28</dim>
					<dim>28</dim>
				</port>
				<port id="8">
					<dim>1</dim>
					<dim>32</dim>
					<dim>28</dim>
					<dim>28</dim>
				</port>
				<port id="9">
					<dim>1</dim>
					<dim>32</dim>
					<dim>28</dim>
					<dim>28</dim>
				</port>
				<port id="10">
					<dim>1</dim>
					<dim>32</dim>
					<dim>28</dim>
					<dim>28</dim>
				</port>
				<port id="11">
					<dim>1</dim>
					<dim>32</dim>
					<dim>28</dim>
					<dim>28</dim>
				</port>
				<port id="12">
					<dim>1</dim>
					<dim>32</dim>
					<dim>28</dim>
					<dim>28</dim>
				</port>
			</input>
			<output>
				<port id="13" precision="FP32">
					<dim>1</dim>
					<dim>512</dim>
					<dim>28</dim>
					<dim>28</dim>
				</port>
			</output>
		</layer>
		<layer name="Mul1_14069/Fused_Mul_/FusedScaleShift_" type="ScaleShift" precision="FP32" id="118">
			<data broadcast="0" />
			<input>
				<port id="0">
					<dim>1</dim>
					<dim>512</dim>
					<dim>28</dim>
					<dim>28</dim>
				</port>
			</input>
			<output>
				<port id="1" precision="FP32">
					<dim>1</dim>
					<dim>512</dim>
					<dim>28</dim>
					<dim>28</dim>
				</port>
			</output>
			<blobs>
				<biases offset="5180672" size="2048" />
				<weights offset="5182720" size="2048" />
			</blobs>
		</layer>
		<layer name="Relu_138" type="ReLU" precision="FP32" id="119">
			<input>
				<port id="0">
					<dim>1</dim>
					<dim>512</dim>
					<dim>28</dim>
					<dim>28</dim>
				</port>
			</input>
			<output>
				<port id="1" precision="FP32">
					<dim>1</dim>
					<dim>512</dim>
					<dim>28</dim>
					<dim>28</dim>
				</port>
			</output>
		</layer>
		<layer name="Conv_139" type="Convolution" precision="FP32" id="120">
			<data dilations="1,1" group="1" kernel="1,1" output="256" pads_begin="0,0" pads_end="0,0" quantization_level="I8" strides="1,1" />
			<input>
				<port id="0">
					<dim>1</dim>
					<dim>512</dim>
					<dim>28</dim>
					<dim>28</dim>
				</port>
			</input>
			<output>
				<port id="1" precision="FP32">
					<dim>1</dim>
					<dim>256</dim>
					<dim>28</dim>
					<dim>28</dim>
				</port>
			</output>
			<blobs>
				<weights offset="5184768" size="524288" />
			</blobs>
		</layer>
		<layer name="AveragePool_141" type="Pooling" precision="FP32" id="121">
			<data exclude-pad="true" kernel="2,2" pads_begin="0,0" pads_end="0,0" pool-method="avg" rounding_type="floor" strides="2,2" />
			<input>
				<port id="0">
					<dim>1</dim>
					<dim>256</dim>
					<dim>28</dim>
					<dim>28</dim>
				</port>
			</input>
			<output>
				<port id="1" precision="FP32">
					<dim>1</dim>
					<dim>256</dim>
					<dim>14</dim>
					<dim>14</dim>
				</port>
			</output>
		</layer>
		<layer name="Concat_142" type="Concat" precision="FP32" id="122">
			<data axis="1" />
			<input>
				<port id="0">
					<dim>1</dim>
					<dim>256</dim>
					<dim>14</dim>
					<dim>14</dim>
				</port>
			</input>
			<output>
				<port id="1" precision="FP32">
					<dim>1</dim>
					<dim>256</dim>
					<dim>14</dim>
					<dim>14</dim>
				</port>
			</output>
		</layer>
		<layer name="Mul1_14081/Fused_Mul_/FusedScaleShift_" type="ScaleShift" precision="FP32" id="123">
			<data broadcast="0" />
			<input>
				<port id="0">
					<dim>1</dim>
					<dim>256</dim>
					<dim>14</dim>
					<dim>14</dim>
				</port>
			</input>
			<output>
				<port id="1" precision="FP32">
					<dim>1</dim>
					<dim>256</dim>
					<dim>14</dim>
					<dim>14</dim>
				</port>
			</output>
			<blobs>
				<biases offset="5709056" size="1024" />
				<weights offset="5710080" size="1024" />
			</blobs>
		</layer>
		<layer name="Relu_144" type="ReLU" precision="FP32" id="124">
			<input>
				<port id="0">
					<dim>1</dim>
					<dim>256</dim>
					<dim>14</dim>
					<dim>14</dim>
				</port>
			</input>
			<output>
				<port id="1" precision="FP32">
					<dim>1</dim>
					<dim>256</dim>
					<dim>14</dim>
					<dim>14</dim>
				</port>
			</output>
		</layer>
		<layer name="Conv_145" type="Convolution" precision="FP32" id="125">
			<data dilations="1,1" group="1" kernel="1,1" output="128" pads_begin="0,0" pads_end="0,0" quantization_level="I8" strides="1,1" />
			<input>
				<port id="0">
					<dim>1</dim>
					<dim>256</dim>
					<dim>14</dim>
					<dim>14</dim>
				</port>
			</input>
			<output>
				<port id="1" precision="FP32">
					<dim>1</dim>
					<dim>128</dim>
					<dim>14</dim>
					<dim>14</dim>
				</port>
			</output>
			<blobs>
				<biases offset="5711104" size="512" />
				<weights offset="5711616" size="131072" />
			</blobs>
		</layer>
		<layer name="Relu_147" type="ReLU" precision="FP32" id="126">
			<input>
				<port id="0">
					<dim>1</dim>
					<dim>128</dim>
					<dim>14</dim>
					<dim>14</dim>
				</port>
			</input>
			<output>
				<port id="1" precision="FP32">
					<dim>1</dim>
					<dim>128</dim>
					<dim>14</dim>
					<dim>14</dim>
				</port>
			</output>
		</layer>
		<layer name="Conv_148" type="Convolution" precision="FP32" id="127">
			<data dilations="1,1" group="1" kernel="3,3" output="32" pads_begin="1,1" pads_end="1,1" quantization_level="I8" strides="1,1" />
			<input>
				<port id="0">
					<dim>1</dim>
					<dim>128</dim>
					<dim>14</dim>
					<dim>14</dim>
				</port>
			</input>
			<output>
				<port id="1" precision="FP32">
					<dim>1</dim>
					<dim>32</dim>
					<dim>14</dim>
					<dim>14</dim>
				</port>
			</output>
			<blobs>
				<weights offset="5842688" size="147456" />
			</blobs>
		</layer>
		<layer name="Concat_149" type="Concat" precision="FP32" id="128">
			<data axis="1" />
			<input>
				<port id="0">
					<dim>1</dim>
					<dim>256</dim>
					<dim>14</dim>
					<dim>14</dim>
				</port>
				<port id="1">
					<dim>1</dim>
					<dim>32</dim>
					<dim>14</dim>
					<dim>14</dim>
				</port>
			</input>
			<output>
				<port id="2" precision="FP32">
					<dim>1</dim>
					<dim>288</dim>
					<dim>14</dim>
					<dim>14</dim>
				</port>
			</output>
		</layer>
		<layer name="Mul1_14105/Fused_Mul_/FusedScaleShift_" type="ScaleShift" precision="FP32" id="129">
			<data broadcast="0" />
			<input>
				<port id="0">
					<dim>1</dim>
					<dim>288</dim>
					<dim>14</dim>
					<dim>14</dim>
				</port>
			</input>
			<output>
				<port id="1" precision="FP32">
					<dim>1</dim>
					<dim>288</dim>
					<dim>14</dim>
					<dim>14</dim>
				</port>
			</output>
			<blobs>
				<biases offset="5990144" size="1152" />
				<weights offset="5991296" size="1152" />
			</blobs>
		</layer>
		<layer name="Relu_151" type="ReLU" precision="FP32" id="130">
			<input>
				<port id="0">
					<dim>1</dim>
					<dim>288</dim>
					<dim>14</dim>
					<dim>14</dim>
				</port>
			</input>
			<output>
				<port id="1" precision="FP32">
					<dim>1</dim>
					<dim>288</dim>
					<dim>14</dim>
					<dim>14</dim>
				</port>
			</output>
		</layer>
		<layer name="Conv_152" type="Convolution" precision="FP32" id="131">
			<data dilations="1,1" group="1" kernel="1,1" output="128" pads_begin="0,0" pads_end="0,0" quantization_level="I8" strides="1,1" />
			<input>
				<port id="0">
					<dim>1</dim>
					<dim>288</dim>
					<dim>14</dim>
					<dim>14</dim>
				</port>
			</input>
			<output>
				<port id="1" precision="FP32">
					<dim>1</dim>
					<dim>128</dim>
					<dim>14</dim>
					<dim>14</dim>
				</port>
			</output>
			<blobs>
				<biases offset="5992448" size="512" />
				<weights offset="5992960" size="147456" />
			</blobs>
		</layer>
		<layer name="Relu_154" type="ReLU" precision="FP32" id="132">
			<input>
				<port id="0">
					<dim>1</dim>
					<dim>128</dim>
					<dim>14</dim>
					<dim>14</dim>
				</port>
			</input>
			<output>
				<port id="1" precision="FP32">
					<dim>1</dim>
					<dim>128</dim>
					<dim>14</dim>
					<dim>14</dim>
				</port>
			</output>
		</layer>
		<layer name="Conv_155" type="Convolution" precision="FP32" id="133">
			<data dilations="1,1" group="1" kernel="3,3" output="32" pads_begin="1,1" pads_end="1,1" quantization_level="I8" strides="1,1" />
			<input>
				<port id="0">
					<dim>1</dim>
					<dim>128</dim>
					<dim>14</dim>
					<dim>14</dim>
				</port>
			</input>
			<output>
				<port id="1" precision="FP32">
					<dim>1</dim>
					<dim>32</dim>
					<dim>14</dim>
					<dim>14</dim>
				</port>
			</output>
			<blobs>
				<weights offset="6140416" size="147456" />
			</blobs>
		</layer>
		<layer name="Concat_156" type="Concat" precision="FP32" id="134">
			<data axis="1" />
			<input>
				<port id="0">
					<dim>1</dim>
					<dim>256</dim>
					<dim>14</dim>
					<dim>14</dim>
				</port>
				<port id="1">
					<dim>1</dim>
					<dim>32</dim>
					<dim>14</dim>
					<dim>14</dim>
				</port>
				<port id="2">
					<dim>1</dim>
					<dim>32</dim>
					<dim>14</dim>
					<dim>14</dim>
				</port>
			</input>
			<output>
				<port id="3" precision="FP32">
					<dim>1</dim>
					<dim>320</dim>
					<dim>14</dim>
					<dim>14</dim>
				</port>
			</output>
		</layer>
		<layer name="Mul1_14129/Fused_Mul_/FusedScaleShift_" type="ScaleShift" precision="FP32" id="135">
			<data broadcast="0" />
			<input>
				<port id="0">
					<dim>1</dim>
					<dim>320</dim>
					<dim>14</dim>
					<dim>14</dim>
				</port>
			</input>
			<output>
				<port id="1" precision="FP32">
					<dim>1</dim>
					<dim>320</dim>
					<dim>14</dim>
					<dim>14</dim>
				</port>
			</output>
			<blobs>
				<biases offset="6287872" size="1280" />
				<weights offset="6289152" size="1280" />
			</blobs>
		</layer>
		<layer name="Relu_158" type="ReLU" precision="FP32" id="136">
			<input>
				<port id="0">
					<dim>1</dim>
					<dim>320</dim>
					<dim>14</dim>
					<dim>14</dim>
				</port>
			</input>
			<output>
				<port id="1" precision="FP32">
					<dim>1</dim>
					<dim>320</dim>
					<dim>14</dim>
					<dim>14</dim>
				</port>
			</output>
		</layer>
		<layer name="Conv_159" type="Convolution" precision="FP32" id="137">
			<data dilations="1,1" group="1" kernel="1,1" output="128" pads_begin="0,0" pads_end="0,0" quantization_level="I8" strides="1,1" />
			<input>
				<port id="0">
					<dim>1</dim>
					<dim>320</dim>
					<dim>14</dim>
					<dim>14</dim>
				</port>
			</input>
			<output>
				<port id="1" precision="FP32">
					<dim>1</dim>
					<dim>128</dim>
					<dim>14</dim>
					<dim>14</dim>
				</port>
			</output>
			<blobs>
				<biases offset="6290432" size="512" />
				<weights offset="6290944" size="163840" />
			</blobs>
		</layer>
		<layer name="Relu_161" type="ReLU" precision="FP32" id="138">
			<input>
				<port id="0">
					<dim>1</dim>
					<dim>128</dim>
					<dim>14</dim>
					<dim>14</dim>
				</port>
			</input>
			<output>
				<port id="1" precision="FP32">
					<dim>1</dim>
					<dim>128</dim>
					<dim>14</dim>
					<dim>14</dim>
				</port>
			</output>
		</layer>
		<layer name="Conv_162" type="Convolution" precision="FP32" id="139">
			<data dilations="1,1" group="1" kernel="3,3" output="32" pads_begin="1,1" pads_end="1,1" quantization_level="I8" strides="1,1" />
			<input>
				<port id="0">
					<dim>1</dim>
					<dim>128</dim>
					<dim>14</dim>
					<dim>14</dim>
				</port>
			</input>
			<output>
				<port id="1" precision="FP32">
					<dim>1</dim>
					<dim>32</dim>
					<dim>14</dim>
					<dim>14</dim>
				</port>
			</output>
			<blobs>
				<weights offset="6454784" size="147456" />
			</blobs>
		</layer>
		<layer name="Concat_163" type="Concat" precision="FP32" id="140">
			<data axis="1" />
			<input>
				<port id="0">
					<dim>1</dim>
					<dim>256</dim>
					<dim>14</dim>
					<dim>14</dim>
				</port>
				<port id="1">
					<dim>1</dim>
					<dim>32</dim>
					<dim>14</dim>
					<dim>14</dim>
				</port>
				<port id="2">
					<dim>1</dim>
					<dim>32</dim>
					<dim>14</dim>
					<dim>14</dim>
				</port>
				<port id="3">
					<dim>1</dim>
					<dim>32</dim>
					<dim>14</dim>
					<dim>14</dim>
				</port>
			</input>
			<output>
				<port id="4" precision="FP32">
					<dim>1</dim>
					<dim>352</dim>
					<dim>14</dim>
					<dim>14</dim>
				</port>
			</output>
		</layer>
		<layer name="Mul1_14153/Fused_Mul_/FusedScaleShift_" type="ScaleShift" precision="FP32" id="141">
			<data broadcast="0" />
			<input>
				<port id="0">
					<dim>1</dim>
					<dim>352</dim>
					<dim>14</dim>
					<dim>14</dim>
				</port>
			</input>
			<output>
				<port id="1" precision="FP32">
					<dim>1</dim>
					<dim>352</dim>
					<dim>14</dim>
					<dim>14</dim>
				</port>
			</output>
			<blobs>
				<biases offset="6602240" size="1408" />
				<weights offset="6603648" size="1408" />
			</blobs>
		</layer>
		<layer name="Relu_165" type="ReLU" precision="FP32" id="142">
			<input>
				<port id="0">
					<dim>1</dim>
					<dim>352</dim>
					<dim>14</dim>
					<dim>14</dim>
				</port>
			</input>
			<output>
				<port id="1" precision="FP32">
					<dim>1</dim>
					<dim>352</dim>
					<dim>14</dim>
					<dim>14</dim>
				</port>
			</output>
		</layer>
		<layer name="Conv_166" type="Convolution" precision="FP32" id="143">
			<data dilations="1,1" group="1" kernel="1,1" output="128" pads_begin="0,0" pads_end="0,0" quantization_level="I8" strides="1,1" />
			<input>
				<port id="0">
					<dim>1</dim>
					<dim>352</dim>
					<dim>14</dim>
					<dim>14</dim>
				</port>
			</input>
			<output>
				<port id="1" precision="FP32">
					<dim>1</dim>
					<dim>128</dim>
					<dim>14</dim>
					<dim>14</dim>
				</port>
			</output>
			<blobs>
				<biases offset="6605056" size="512" />
				<weights offset="6605568" size="180224" />
			</blobs>
		</layer>
		<layer name="Relu_168" type="ReLU" precision="FP32" id="144">
			<input>
				<port id="0">
					<dim>1</dim>
					<dim>128</dim>
					<dim>14</dim>
					<dim>14</dim>
				</port>
			</input>
			<output>
				<port id="1" precision="FP32">
					<dim>1</dim>
					<dim>128</dim>
					<dim>14</dim>
					<dim>14</dim>
				</port>
			</output>
		</layer>
		<layer name="Conv_169" type="Convolution" precision="FP32" id="145">
			<data dilations="1,1" group="1" kernel="3,3" output="32" pads_begin="1,1" pads_end="1,1" quantization_level="I8" strides="1,1" />
			<input>
				<port id="0">
					<dim>1</dim>
					<dim>128</dim>
					<dim>14</dim>
					<dim>14</dim>
				</port>
			</input>
			<output>
				<port id="1" precision="FP32">
					<dim>1</dim>
					<dim>32</dim>
					<dim>14</dim>
					<dim>14</dim>
				</port>
			</output>
			<blobs>
				<weights offset="6785792" size="147456" />
			</blobs>
		</layer>
		<layer name="Concat_170" type="Concat" precision="FP32" id="146">
			<data axis="1" />
			<input>
				<port id="0">
					<dim>1</dim>
					<dim>256</dim>
					<dim>14</dim>
					<dim>14</dim>
				</port>
				<port id="1">
					<dim>1</dim>
					<dim>32</dim>
					<dim>14</dim>
					<dim>14</dim>
				</port>
				<port id="2">
					<dim>1</dim>
					<dim>32</dim>
					<dim>14</dim>
					<dim>14</dim>
				</port>
				<port id="3">
					<dim>1</dim>
					<dim>32</dim>
					<dim>14</dim>
					<dim>14</dim>
				</port>
				<port id="4">
					<dim>1</dim>
					<dim>32</dim>
					<dim>14</dim>
					<dim>14</dim>
				</port>
			</input>
			<output>
				<port id="5" precision="FP32">
					<dim>1</dim>
					<dim>384</dim>
					<dim>14</dim>
					<dim>14</dim>
				</port>
			</output>
		</layer>
		<layer name="Mul1_14177/Fused_Mul_/FusedScaleShift_" type="ScaleShift" precision="FP32" id="147">
			<data broadcast="0" />
			<input>
				<port id="0">
					<dim>1</dim>
					<dim>384</dim>
					<dim>14</dim>
					<dim>14</dim>
				</port>
			</input>
			<output>
				<port id="1" precision="FP32">
					<dim>1</dim>
					<dim>384</dim>
					<dim>14</dim>
					<dim>14</dim>
				</port>
			</output>
			<blobs>
				<biases offset="6933248" size="1536" />
				<weights offset="6934784" size="1536" />
			</blobs>
		</layer>
		<layer name="Relu_172" type="ReLU" precision="FP32" id="148">
			<input>
				<port id="0">
					<dim>1</dim>
					<dim>384</dim>
					<dim>14</dim>
					<dim>14</dim>
				</port>
			</input>
			<output>
				<port id="1" precision="FP32">
					<dim>1</dim>
					<dim>384</dim>
					<dim>14</dim>
					<dim>14</dim>
				</port>
			</output>
		</layer>
		<layer name="Conv_173" type="Convolution" precision="FP32" id="149">
			<data dilations="1,1" group="1" kernel="1,1" output="128" pads_begin="0,0" pads_end="0,0" quantization_level="I8" strides="1,1" />
			<input>
				<port id="0">
					<dim>1</dim>
					<dim>384</dim>
					<dim>14</dim>
					<dim>14</dim>
				</port>
			</input>
			<output>
				<port id="1" precision="FP32">
					<dim>1</dim>
					<dim>128</dim>
					<dim>14</dim>
					<dim>14</dim>
				</port>
			</output>
			<blobs>
				<biases offset="6936320" size="512" />
				<weights offset="6936832" size="196608" />
			</blobs>
		</layer>
		<layer name="Relu_175" type="ReLU" precision="FP32" id="150">
			<input>
				<port id="0">
					<dim>1</dim>
					<dim>128</dim>
					<dim>14</dim>
					<dim>14</dim>
				</port>
			</input>
			<output>
				<port id="1" precision="FP32">
					<dim>1</dim>
					<dim>128</dim>
					<dim>14</dim>
					<dim>14</dim>
				</port>
			</output>
		</layer>
		<layer name="Conv_176" type="Convolution" precision="FP32" id="151">
			<data dilations="1,1" group="1" kernel="3,3" output="32" pads_begin="1,1" pads_end="1,1" quantization_level="I8" strides="1,1" />
			<input>
				<port id="0">
					<dim>1</dim>
					<dim>128</dim>
					<dim>14</dim>
					<dim>14</dim>
				</port>
			</input>
			<output>
				<port id="1" precision="FP32">
					<dim>1</dim>
					<dim>32</dim>
					<dim>14</dim>
					<dim>14</dim>
				</port>
			</output>
			<blobs>
				<weights offset="7133440" size="147456" />
			</blobs>
		</layer>
		<layer name="Concat_177" type="Concat" precision="FP32" id="152">
			<data axis="1" />
			<input>
				<port id="0">
					<dim>1</dim>
					<dim>256</dim>
					<dim>14</dim>
					<dim>14</dim>
				</port>
				<port id="1">
					<dim>1</dim>
					<dim>32</dim>
					<dim>14</dim>
					<dim>14</dim>
				</port>
				<port id="2">
					<dim>1</dim>
					<dim>32</dim>
					<dim>14</dim>
					<dim>14</dim>
				</port>
				<port id="3">
					<dim>1</dim>
					<dim>32</dim>
					<dim>14</dim>
					<dim>14</dim>
				</port>
				<port id="4">
					<dim>1</dim>
					<dim>32</dim>
					<dim>14</dim>
					<dim>14</dim>
				</port>
				<port id="5">
					<dim>1</dim>
					<dim>32</dim>
					<dim>14</dim>
					<dim>14</dim>
				</port>
			</input>
			<output>
				<port id="6" precision="FP32">
					<dim>1</dim>
					<dim>416</dim>
					<dim>14</dim>
					<dim>14</dim>
				</port>
			</output>
		</layer>
		<layer name="Mul1_14201/Fused_Mul_/FusedScaleShift_" type="ScaleShift" precision="FP32" id="153">
			<data broadcast="0" />
			<input>
				<port id="0">
					<dim>1</dim>
					<dim>416</dim>
					<dim>14</dim>
					<dim>14</dim>
				</port>
			</input>
			<output>
				<port id="1" precision="FP32">
					<dim>1</dim>
					<dim>416</dim>
					<dim>14</dim>
					<dim>14</dim>
				</port>
			</output>
			<blobs>
				<biases offset="7280896" size="1664" />
				<weights offset="7282560" size="1664" />
			</blobs>
		</layer>
		<layer name="Relu_179" type="ReLU" precision="FP32" id="154">
			<input>
				<port id="0">
					<dim>1</dim>
					<dim>416</dim>
					<dim>14</dim>
					<dim>14</dim>
				</port>
			</input>
			<output>
				<port id="1" precision="FP32">
					<dim>1</dim>
					<dim>416</dim>
					<dim>14</dim>
					<dim>14</dim>
				</port>
			</output>
		</layer>
		<layer name="Conv_180" type="Convolution" precision="FP32" id="155">
			<data dilations="1,1" group="1" kernel="1,1" output="128" pads_begin="0,0" pads_end="0,0" quantization_level="I8" strides="1,1" />
			<input>
				<port id="0">
					<dim>1</dim>
					<dim>416</dim>
					<dim>14</dim>
					<dim>14</dim>
				</port>
			</input>
			<output>
				<port id="1" precision="FP32">
					<dim>1</dim>
					<dim>128</dim>
					<dim>14</dim>
					<dim>14</dim>
				</port>
			</output>
			<blobs>
				<biases offset="7284224" size="512" />
				<weights offset="7284736" size="212992" />
			</blobs>
		</layer>
		<layer name="Relu_182" type="ReLU" precision="FP32" id="156">
			<input>
				<port id="0">
					<dim>1</dim>
					<dim>128</dim>
					<dim>14</dim>
					<dim>14</dim>
				</port>
			</input>
			<output>
				<port id="1" precision="FP32">
					<dim>1</dim>
					<dim>128</dim>
					<dim>14</dim>
					<dim>14</dim>
				</port>
			</output>
		</layer>
		<layer name="Conv_183" type="Convolution" precision="FP32" id="157">
			<data dilations="1,1" group="1" kernel="3,3" output="32" pads_begin="1,1" pads_end="1,1" quantization_level="I8" strides="1,1" />
			<input>
				<port id="0">
					<dim>1</dim>
					<dim>128</dim>
					<dim>14</dim>
					<dim>14</dim>
				</port>
			</input>
			<output>
				<port id="1" precision="FP32">
					<dim>1</dim>
					<dim>32</dim>
					<dim>14</dim>
					<dim>14</dim>
				</port>
			</output>
			<blobs>
				<weights offset="7497728" size="147456" />
			</blobs>
		</layer>
		<layer name="Concat_184" type="Concat" precision="FP32" id="158">
			<data axis="1" />
			<input>
				<port id="0">
					<dim>1</dim>
					<dim>256</dim>
					<dim>14</dim>
					<dim>14</dim>
				</port>
				<port id="1">
					<dim>1</dim>
					<dim>32</dim>
					<dim>14</dim>
					<dim>14</dim>
				</port>
				<port id="2">
					<dim>1</dim>
					<dim>32</dim>
					<dim>14</dim>
					<dim>14</dim>
				</port>
				<port id="3">
					<dim>1</dim>
					<dim>32</dim>
					<dim>14</dim>
					<dim>14</dim>
				</port>
				<port id="4">
					<dim>1</dim>
					<dim>32</dim>
					<dim>14</dim>
					<dim>14</dim>
				</port>
				<port id="5">
					<dim>1</dim>
					<dim>32</dim>
					<dim>14</dim>
					<dim>14</dim>
				</port>
				<port id="6">
					<dim>1</dim>
					<dim>32</dim>
					<dim>14</dim>
					<dim>14</dim>
				</port>
			</input>
			<output>
				<port id="7" precision="FP32">
					<dim>1</dim>
					<dim>448</dim>
					<dim>14</dim>
					<dim>14</dim>
				</port>
			</output>
		</layer>
		<layer name="Mul1_14225/Fused_Mul_/FusedScaleShift_" type="ScaleShift" precision="FP32" id="159">
			<data broadcast="0" />
			<input>
				<port id="0">
					<dim>1</dim>
					<dim>448</dim>
					<dim>14</dim>
					<dim>14</dim>
				</port>
			</input>
			<output>
				<port id="1" precision="FP32">
					<dim>1</dim>
					<dim>448</dim>
					<dim>14</dim>
					<dim>14</dim>
				</port>
			</output>
			<blobs>
				<biases offset="7645184" size="1792" />
				<weights offset="7646976" size="1792" />
			</blobs>
		</layer>
		<layer name="Relu_186" type="ReLU" precision="FP32" id="160">
			<input>
				<port id="0">
					<dim>1</dim>
					<dim>448</dim>
					<dim>14</dim>
					<dim>14</dim>
				</port>
			</input>
			<output>
				<port id="1" precision="FP32">
					<dim>1</dim>
					<dim>448</dim>
					<dim>14</dim>
					<dim>14</dim>
				</port>
			</output>
		</layer>
		<layer name="Conv_187" type="Convolution" precision="FP32" id="161">
			<data dilations="1,1" group="1" kernel="1,1" output="128" pads_begin="0,0" pads_end="0,0" quantization_level="I8" strides="1,1" />
			<input>
				<port id="0">
					<dim>1</dim>
					<dim>448</dim>
					<dim>14</dim>
					<dim>14</dim>
				</port>
			</input>
			<output>
				<port id="1" precision="FP32">
					<dim>1</dim>
					<dim>128</dim>
					<dim>14</dim>
					<dim>14</dim>
				</port>
			</output>
			<blobs>
				<biases offset="7648768" size="512" />
				<weights offset="7649280" size="229376" />
			</blobs>
		</layer>
		<layer name="Relu_189" type="ReLU" precision="FP32" id="162">
			<input>
				<port id="0">
					<dim>1</dim>
					<dim>128</dim>
					<dim>14</dim>
					<dim>14</dim>
				</port>
			</input>
			<output>
				<port id="1" precision="FP32">
					<dim>1</dim>
					<dim>128</dim>
					<dim>14</dim>
					<dim>14</dim>
				</port>
			</output>
		</layer>
		<layer name="Conv_190" type="Convolution" precision="FP32" id="163">
			<data dilations="1,1" group="1" kernel="3,3" output="32" pads_begin="1,1" pads_end="1,1" quantization_level="I8" strides="1,1" />
			<input>
				<port id="0">
					<dim>1</dim>
					<dim>128</dim>
					<dim>14</dim>
					<dim>14</dim>
				</port>
			</input>
			<output>
				<port id="1" precision="FP32">
					<dim>1</dim>
					<dim>32</dim>
					<dim>14</dim>
					<dim>14</dim>
				</port>
			</output>
			<blobs>
				<weights offset="7878656" size="147456" />
			</blobs>
		</layer>
		<layer name="Concat_191" type="Concat" precision="FP32" id="164">
			<data axis="1" />
			<input>
				<port id="0">
					<dim>1</dim>
					<dim>256</dim>
					<dim>14</dim>
					<dim>14</dim>
				</port>
				<port id="1">
					<dim>1</dim>
					<dim>32</dim>
					<dim>14</dim>
					<dim>14</dim>
				</port>
				<port id="2">
					<dim>1</dim>
					<dim>32</dim>
					<dim>14</dim>
					<dim>14</dim>
				</port>
				<port id="3">
					<dim>1</dim>
					<dim>32</dim>
					<dim>14</dim>
					<dim>14</dim>
				</port>
				<port id="4">
					<dim>1</dim>
					<dim>32</dim>
					<dim>14</dim>
					<dim>14</dim>
				</port>
				<port id="5">
					<dim>1</dim>
					<dim>32</dim>
					<dim>14</dim>
					<dim>14</dim>
				</port>
				<port id="6">
					<dim>1</dim>
					<dim>32</dim>
					<dim>14</dim>
					<dim>14</dim>
				</port>
				<port id="7">
					<dim>1</dim>
					<dim>32</dim>
					<dim>14</dim>
					<dim>14</dim>
				</port>
			</input>
			<output>
				<port id="8" precision="FP32">
					<dim>1</dim>
					<dim>480</dim>
					<dim>14</dim>
					<dim>14</dim>
				</port>
			</output>
		</layer>
		<layer name="Mul1_14249/Fused_Mul_/FusedScaleShift_" type="ScaleShift" precision="FP32" id="165">
			<data broadcast="0" />
			<input>
				<port id="0">
					<dim>1</dim>
					<dim>480</dim>
					<dim>14</dim>
					<dim>14</dim>
				</port>
			</input>
			<output>
				<port id="1" precision="FP32">
					<dim>1</dim>
					<dim>480</dim>
					<dim>14</dim>
					<dim>14</dim>
				</port>
			</output>
			<blobs>
				<biases offset="8026112" size="1920" />
				<weights offset="8028032" size="1920" />
			</blobs>
		</layer>
		<layer name="Relu_193" type="ReLU" precision="FP32" id="166">
			<input>
				<port id="0">
					<dim>1</dim>
					<dim>480</dim>
					<dim>14</dim>
					<dim>14</dim>
				</port>
			</input>
			<output>
				<port id="1" precision="FP32">
					<dim>1</dim>
					<dim>480</dim>
					<dim>14</dim>
					<dim>14</dim>
				</port>
			</output>
		</layer>
		<layer name="Conv_194" type="Convolution" precision="FP32" id="167">
			<data dilations="1,1" group="1" kernel="1,1" output="128" pads_begin="0,0" pads_end="0,0" quantization_level="I8" strides="1,1" />
			<input>
				<port id="0">
					<dim>1</dim>
					<dim>480</dim>
					<dim>14</dim>
					<dim>14</dim>
				</port>
			</input>
			<output>
				<port id="1" precision="FP32">
					<dim>1</dim>
					<dim>128</dim>
					<dim>14</dim>
					<dim>14</dim>
				</port>
			</output>
			<blobs>
				<biases offset="8029952" size="512" />
				<weights offset="8030464" size="245760" />
			</blobs>
		</layer>
		<layer name="Relu_196" type="ReLU" precision="FP32" id="168">
			<input>
				<port id="0">
					<dim>1</dim>
					<dim>128</dim>
					<dim>14</dim>
					<dim>14</dim>
				</port>
			</input>
			<output>
				<port id="1" precision="FP32">
					<dim>1</dim>
					<dim>128</dim>
					<dim>14</dim>
					<dim>14</dim>
				</port>
			</output>
		</layer>
		<layer name="Conv_197" type="Convolution" precision="FP32" id="169">
			<data dilations="1,1" group="1" kernel="3,3" output="32" pads_begin="1,1" pads_end="1,1" quantization_level="I8" strides="1,1" />
			<input>
				<port id="0">
					<dim>1</dim>
					<dim>128</dim>
					<dim>14</dim>
					<dim>14</dim>
				</port>
			</input>
			<output>
				<port id="1" precision="FP32">
					<dim>1</dim>
					<dim>32</dim>
					<dim>14</dim>
					<dim>14</dim>
				</port>
			</output>
			<blobs>
				<weights offset="8276224" size="147456" />
			</blobs>
		</layer>
		<layer name="Concat_198" type="Concat" precision="FP32" id="170">
			<data axis="1" />
			<input>
				<port id="0">
					<dim>1</dim>
					<dim>256</dim>
					<dim>14</dim>
					<dim>14</dim>
				</port>
				<port id="1">
					<dim>1</dim>
					<dim>32</dim>
					<dim>14</dim>
					<dim>14</dim>
				</port>
				<port id="2">
					<dim>1</dim>
					<dim>32</dim>
					<dim>14</dim>
					<dim>14</dim>
				</port>
				<port id="3">
					<dim>1</dim>
					<dim>32</dim>
					<dim>14</dim>
					<dim>14</dim>
				</port>
				<port id="4">
					<dim>1</dim>
					<dim>32</dim>
					<dim>14</dim>
					<dim>14</dim>
				</port>
				<port id="5">
					<dim>1</dim>
					<dim>32</dim>
					<dim>14</dim>
					<dim>14</dim>
				</port>
				<port id="6">
					<dim>1</dim>
					<dim>32</dim>
					<dim>14</dim>
					<dim>14</dim>
				</port>
				<port id="7">
					<dim>1</dim>
					<dim>32</dim>
					<dim>14</dim>
					<dim>14</dim>
				</port>
				<port id="8">
					<dim>1</dim>
					<dim>32</dim>
					<dim>14</dim>
					<dim>14</dim>
				</port>
			</input>
			<output>
				<port id="9" precision="FP32">
					<dim>1</dim>
					<dim>512</dim>
					<dim>14</dim>
					<dim>14</dim>
				</port>
			</output>
		</layer>
		<layer name="Mul1_14273/Fused_Mul_/FusedScaleShift_" type="ScaleShift" precision="FP32" id="171">
			<data broadcast="0" />
			<input>
				<port id="0">
					<dim>1</dim>
					<dim>512</dim>
					<dim>14</dim>
					<dim>14</dim>
				</port>
			</input>
			<output>
				<port id="1" precision="FP32">
					<dim>1</dim>
					<dim>512</dim>
					<dim>14</dim>
					<dim>14</dim>
				</port>
			</output>
			<blobs>
				<biases offset="8423680" size="2048" />
				<weights offset="8425728" size="2048" />
			</blobs>
		</layer>
		<layer name="Relu_200" type="ReLU" precision="FP32" id="172">
			<input>
				<port id="0">
					<dim>1</dim>
					<dim>512</dim>
					<dim>14</dim>
					<dim>14</dim>
				</port>
			</input>
			<output>
				<port id="1" precision="FP32">
					<dim>1</dim>
					<dim>512</dim>
					<dim>14</dim>
					<dim>14</dim>
				</port>
			</output>
		</layer>
		<layer name="Conv_201" type="Convolution" precision="FP32" id="173">
			<data dilations="1,1" group="1" kernel="1,1" output="128" pads_begin="0,0" pads_end="0,0" quantization_level="I8" strides="1,1" />
			<input>
				<port id="0">
					<dim>1</dim>
					<dim>512</dim>
					<dim>14</dim>
					<dim>14</dim>
				</port>
			</input>
			<output>
				<port id="1" precision="FP32">
					<dim>1</dim>
					<dim>128</dim>
					<dim>14</dim>
					<dim>14</dim>
				</port>
			</output>
			<blobs>
				<biases offset="8427776" size="512" />
				<weights offset="8428288" size="262144" />
			</blobs>
		</layer>
		<layer name="Relu_203" type="ReLU" precision="FP32" id="174">
			<input>
				<port id="0">
					<dim>1</dim>
					<dim>128</dim>
					<dim>14</dim>
					<dim>14</dim>
				</port>
			</input>
			<output>
				<port id="1" precision="FP32">
					<dim>1</dim>
					<dim>128</dim>
					<dim>14</dim>
					<dim>14</dim>
				</port>
			</output>
		</layer>
		<layer name="Conv_204" type="Convolution" precision="FP32" id="175">
			<data dilations="1,1" group="1" kernel="3,3" output="32" pads_begin="1,1" pads_end="1,1" quantization_level="I8" strides="1,1" />
			<input>
				<port id="0">
					<dim>1</dim>
					<dim>128</dim>
					<dim>14</dim>
					<dim>14</dim>
				</port>
			</input>
			<output>
				<port id="1" precision="FP32">
					<dim>1</dim>
					<dim>32</dim>
					<dim>14</dim>
					<dim>14</dim>
				</port>
			</output>
			<blobs>
				<weights offset="8690432" size="147456" />
			</blobs>
		</layer>
		<layer name="Concat_205" type="Concat" precision="FP32" id="176">
			<data axis="1" />
			<input>
				<port id="0">
					<dim>1</dim>
					<dim>256</dim>
					<dim>14</dim>
					<dim>14</dim>
				</port>
				<port id="1">
					<dim>1</dim>
					<dim>32</dim>
					<dim>14</dim>
					<dim>14</dim>
				</port>
				<port id="2">
					<dim>1</dim>
					<dim>32</dim>
					<dim>14</dim>
					<dim>14</dim>
				</port>
				<port id="3">
					<dim>1</dim>
					<dim>32</dim>
					<dim>14</dim>
					<dim>14</dim>
				</port>
				<port id="4">
					<dim>1</dim>
					<dim>32</dim>
					<dim>14</dim>
					<dim>14</dim>
				</port>
				<port id="5">
					<dim>1</dim>
					<dim>32</dim>
					<dim>14</dim>
					<dim>14</dim>
				</port>
				<port id="6">
					<dim>1</dim>
					<dim>32</dim>
					<dim>14</dim>
					<dim>14</dim>
				</port>
				<port id="7">
					<dim>1</dim>
					<dim>32</dim>
					<dim>14</dim>
					<dim>14</dim>
				</port>
				<port id="8">
					<dim>1</dim>
					<dim>32</dim>
					<dim>14</dim>
					<dim>14</dim>
				</port>
				<port id="9">
					<dim>1</dim>
					<dim>32</dim>
					<dim>14</dim>
					<dim>14</dim>
				</port>
			</input>
			<output>
				<port id="10" precision="FP32">
					<dim>1</dim>
					<dim>544</dim>
					<dim>14</dim>
					<dim>14</dim>
				</port>
			</output>
		</layer>
		<layer name="Mul1_14297/Fused_Mul_/FusedScaleShift_" type="ScaleShift" precision="FP32" id="177">
			<data broadcast="0" />
			<input>
				<port id="0">
					<dim>1</dim>
					<dim>544</dim>
					<dim>14</dim>
					<dim>14</dim>
				</port>
			</input>
			<output>
				<port id="1" precision="FP32">
					<dim>1</dim>
					<dim>544</dim>
					<dim>14</dim>
					<dim>14</dim>
				</port>
			</output>
			<blobs>
				<biases offset="8837888" size="2176" />
				<weights offset="8840064" size="2176" />
			</blobs>
		</layer>
		<layer name="Relu_207" type="ReLU" precision="FP32" id="178">
			<input>
				<port id="0">
					<dim>1</dim>
					<dim>544</dim>
					<dim>14</dim>
					<dim>14</dim>
				</port>
			</input>
			<output>
				<port id="1" precision="FP32">
					<dim>1</dim>
					<dim>544</dim>
					<dim>14</dim>
					<dim>14</dim>
				</port>
			</output>
		</layer>
		<layer name="Conv_208" type="Convolution" precision="FP32" id="179">
			<data dilations="1,1" group="1" kernel="1,1" output="128" pads_begin="0,0" pads_end="0,0" quantization_level="I8" strides="1,1" />
			<input>
				<port id="0">
					<dim>1</dim>
					<dim>544</dim>
					<dim>14</dim>
					<dim>14</dim>
				</port>
			</input>
			<output>
				<port id="1" precision="FP32">
					<dim>1</dim>
					<dim>128</dim>
					<dim>14</dim>
					<dim>14</dim>
				</port>
			</output>
			<blobs>
				<biases offset="8842240" size="512" />
				<weights offset="8842752" size="278528" />
			</blobs>
		</layer>
		<layer name="Relu_210" type="ReLU" precision="FP32" id="180">
			<input>
				<port id="0">
					<dim>1</dim>
					<dim>128</dim>
					<dim>14</dim>
					<dim>14</dim>
				</port>
			</input>
			<output>
				<port id="1" precision="FP32">
					<dim>1</dim>
					<dim>128</dim>
					<dim>14</dim>
					<dim>14</dim>
				</port>
			</output>
		</layer>
		<layer name="Conv_211" type="Convolution" precision="FP32" id="181">
			<data dilations="1,1" group="1" kernel="3,3" output="32" pads_begin="1,1" pads_end="1,1" quantization_level="I8" strides="1,1" />
			<input>
				<port id="0">
					<dim>1</dim>
					<dim>128</dim>
					<dim>14</dim>
					<dim>14</dim>
				</port>
			</input>
			<output>
				<port id="1" precision="FP32">
					<dim>1</dim>
					<dim>32</dim>
					<dim>14</dim>
					<dim>14</dim>
				</port>
			</output>
			<blobs>
				<weights offset="9121280" size="147456" />
			</blobs>
		</layer>
		<layer name="Concat_212" type="Concat" precision="FP32" id="182">
			<data axis="1" />
			<input>
				<port id="0">
					<dim>1</dim>
					<dim>256</dim>
					<dim>14</dim>
					<dim>14</dim>
				</port>
				<port id="1">
					<dim>1</dim>
					<dim>32</dim>
					<dim>14</dim>
					<dim>14</dim>
				</port>
				<port id="2">
					<dim>1</dim>
					<dim>32</dim>
					<dim>14</dim>
					<dim>14</dim>
				</port>
				<port id="3">
					<dim>1</dim>
					<dim>32</dim>
					<dim>14</dim>
					<dim>14</dim>
				</port>
				<port id="4">
					<dim>1</dim>
					<dim>32</dim>
					<dim>14</dim>
					<dim>14</dim>
				</port>
				<port id="5">
					<dim>1</dim>
					<dim>32</dim>
					<dim>14</dim>
					<dim>14</dim>
				</port>
				<port id="6">
					<dim>1</dim>
					<dim>32</dim>
					<dim>14</dim>
					<dim>14</dim>
				</port>
				<port id="7">
					<dim>1</dim>
					<dim>32</dim>
					<dim>14</dim>
					<dim>14</dim>
				</port>
				<port id="8">
					<dim>1</dim>
					<dim>32</dim>
					<dim>14</dim>
					<dim>14</dim>
				</port>
				<port id="9">
					<dim>1</dim>
					<dim>32</dim>
					<dim>14</dim>
					<dim>14</dim>
				</port>
				<port id="10">
					<dim>1</dim>
					<dim>32</dim>
					<dim>14</dim>
					<dim>14</dim>
				</port>
			</input>
			<output>
				<port id="11" precision="FP32">
					<dim>1</dim>
					<dim>576</dim>
					<dim>14</dim>
					<dim>14</dim>
				</port>
			</output>
		</layer>
		<layer name="Mul1_14321/Fused_Mul_/FusedScaleShift_" type="ScaleShift" precision="FP32" id="183">
			<data broadcast="0" />
			<input>
				<port id="0">
					<dim>1</dim>
					<dim>576</dim>
					<dim>14</dim>
					<dim>14</dim>
				</port>
			</input>
			<output>
				<port id="1" precision="FP32">
					<dim>1</dim>
					<dim>576</dim>
					<dim>14</dim>
					<dim>14</dim>
				</port>
			</output>
			<blobs>
				<biases offset="9268736" size="2304" />
				<weights offset="9271040" size="2304" />
			</blobs>
		</layer>
		<layer name="Relu_214" type="ReLU" precision="FP32" id="184">
			<input>
				<port id="0">
					<dim>1</dim>
					<dim>576</dim>
					<dim>14</dim>
					<dim>14</dim>
				</port>
			</input>
			<output>
				<port id="1" precision="FP32">
					<dim>1</dim>
					<dim>576</dim>
					<dim>14</dim>
					<dim>14</dim>
				</port>
			</output>
		</layer>
		<layer name="Conv_215" type="Convolution" precision="FP32" id="185">
			<data dilations="1,1" group="1" kernel="1,1" output="128" pads_begin="0,0" pads_end="0,0" quantization_level="I8" strides="1,1" />
			<input>
				<port id="0">
					<dim>1</dim>
					<dim>576</dim>
					<dim>14</dim>
					<dim>14</dim>
				</port>
			</input>
			<output>
				<port id="1" precision="FP32">
					<dim>1</dim>
					<dim>128</dim>
					<dim>14</dim>
					<dim>14</dim>
				</port>
			</output>
			<blobs>
				<biases offset="9273344" size="512" />
				<weights offset="9273856" size="294912" />
			</blobs>
		</layer>
		<layer name="Relu_217" type="ReLU" precision="FP32" id="186">
			<input>
				<port id="0">
					<dim>1</dim>
					<dim>128</dim>
					<dim>14</dim>
					<dim>14</dim>
				</port>
			</input>
			<output>
				<port id="1" precision="FP32">
					<dim>1</dim>
					<dim>128</dim>
					<dim>14</dim>
					<dim>14</dim>
				</port>
			</output>
		</layer>
		<layer name="Conv_218" type="Convolution" precision="FP32" id="187">
			<data dilations="1,1" group="1" kernel="3,3" output="32" pads_begin="1,1" pads_end="1,1" quantization_level="I8" strides="1,1" />
			<input>
				<port id="0">
					<dim>1</dim>
					<dim>128</dim>
					<dim>14</dim>
					<dim>14</dim>
				</port>
			</input>
			<output>
				<port id="1" precision="FP32">
					<dim>1</dim>
					<dim>32</dim>
					<dim>14</dim>
					<dim>14</dim>
				</port>
			</output>
			<blobs>
				<weights offset="9568768" size="147456" />
			</blobs>
		</layer>
		<layer name="Concat_219" type="Concat" precision="FP32" id="188">
			<data axis="1" />
			<input>
				<port id="0">
					<dim>1</dim>
					<dim>256</dim>
					<dim>14</dim>
					<dim>14</dim>
				</port>
				<port id="1">
					<dim>1</dim>
					<dim>32</dim>
					<dim>14</dim>
					<dim>14</dim>
				</port>
				<port id="2">
					<dim>1</dim>
					<dim>32</dim>
					<dim>14</dim>
					<dim>14</dim>
				</port>
				<port id="3">
					<dim>1</dim>
					<dim>32</dim>
					<dim>14</dim>
					<dim>14</dim>
				</port>
				<port id="4">
					<dim>1</dim>
					<dim>32</dim>
					<dim>14</dim>
					<dim>14</dim>
				</port>
				<port id="5">
					<dim>1</dim>
					<dim>32</dim>
					<dim>14</dim>
					<dim>14</dim>
				</port>
				<port id="6">
					<dim>1</dim>
					<dim>32</dim>
					<dim>14</dim>
					<dim>14</dim>
				</port>
				<port id="7">
					<dim>1</dim>
					<dim>32</dim>
					<dim>14</dim>
					<dim>14</dim>
				</port>
				<port id="8">
					<dim>1</dim>
					<dim>32</dim>
					<dim>14</dim>
					<dim>14</dim>
				</port>
				<port id="9">
					<dim>1</dim>
					<dim>32</dim>
					<dim>14</dim>
					<dim>14</dim>
				</port>
				<port id="10">
					<dim>1</dim>
					<dim>32</dim>
					<dim>14</dim>
					<dim>14</dim>
				</port>
				<port id="11">
					<dim>1</dim>
					<dim>32</dim>
					<dim>14</dim>
					<dim>14</dim>
				</port>
			</input>
			<output>
				<port id="12" precision="FP32">
					<dim>1</dim>
					<dim>608</dim>
					<dim>14</dim>
					<dim>14</dim>
				</port>
			</output>
		</layer>
		<layer name="Mul1_14345/Fused_Mul_/FusedScaleShift_" type="ScaleShift" precision="FP32" id="189">
			<data broadcast="0" />
			<input>
				<port id="0">
					<dim>1</dim>
					<dim>608</dim>
					<dim>14</dim>
					<dim>14</dim>
				</port>
			</input>
			<output>
				<port id="1" precision="FP32">
					<dim>1</dim>
					<dim>608</dim>
					<dim>14</dim>
					<dim>14</dim>
				</port>
			</output>
			<blobs>
				<biases offset="9716224" size="2432" />
				<weights offset="9718656" size="2432" />
			</blobs>
		</layer>
		<layer name="Relu_221" type="ReLU" precision="FP32" id="190">
			<input>
				<port id="0">
					<dim>1</dim>
					<dim>608</dim>
					<dim>14</dim>
					<dim>14</dim>
				</port>
			</input>
			<output>
				<port id="1" precision="FP32">
					<dim>1</dim>
					<dim>608</dim>
					<dim>14</dim>
					<dim>14</dim>
				</port>
			</output>
		</layer>
		<layer name="Conv_222" type="Convolution" precision="FP32" id="191">
			<data dilations="1,1" group="1" kernel="1,1" output="128" pads_begin="0,0" pads_end="0,0" quantization_level="I8" strides="1,1" />
			<input>
				<port id="0">
					<dim>1</dim>
					<dim>608</dim>
					<dim>14</dim>
					<dim>14</dim>
				</port>
			</input>
			<output>
				<port id="1" precision="FP32">
					<dim>1</dim>
					<dim>128</dim>
					<dim>14</dim>
					<dim>14</dim>
				</port>
			</output>
			<blobs>
				<biases offset="9721088" size="512" />
				<weights offset="9721600" size="311296" />
			</blobs>
		</layer>
		<layer name="Relu_224" type="ReLU" precision="FP32" id="192">
			<input>
				<port id="0">
					<dim>1</dim>
					<dim>128</dim>
					<dim>14</dim>
					<dim>14</dim>
				</port>
			</input>
			<output>
				<port id="1" precision="FP32">
					<dim>1</dim>
					<dim>128</dim>
					<dim>14</dim>
					<dim>14</dim>
				</port>
			</output>
		</layer>
		<layer name="Conv_225" type="Convolution" precision="FP32" id="193">
			<data dilations="1,1" group="1" kernel="3,3" output="32" pads_begin="1,1" pads_end="1,1" quantization_level="I8" strides="1,1" />
			<input>
				<port id="0">
					<dim>1</dim>
					<dim>128</dim>
					<dim>14</dim>
					<dim>14</dim>
				</port>
			</input>
			<output>
				<port id="1" precision="FP32">
					<dim>1</dim>
					<dim>32</dim>
					<dim>14</dim>
					<dim>14</dim>
				</port>
			</output>
			<blobs>
				<weights offset="10032896" size="147456" />
			</blobs>
		</layer>
		<layer name="Concat_226" type="Concat" precision="FP32" id="194">
			<data axis="1" />
			<input>
				<port id="0">
					<dim>1</dim>
					<dim>256</dim>
					<dim>14</dim>
					<dim>14</dim>
				</port>
				<port id="1">
					<dim>1</dim>
					<dim>32</dim>
					<dim>14</dim>
					<dim>14</dim>
				</port>
				<port id="2">
					<dim>1</dim>
					<dim>32</dim>
					<dim>14</dim>
					<dim>14</dim>
				</port>
				<port id="3">
					<dim>1</dim>
					<dim>32</dim>
					<dim>14</dim>
					<dim>14</dim>
				</port>
				<port id="4">
					<dim>1</dim>
					<dim>32</dim>
					<dim>14</dim>
					<dim>14</dim>
				</port>
				<port id="5">
					<dim>1</dim>
					<dim>32</dim>
					<dim>14</dim>
					<dim>14</dim>
				</port>
				<port id="6">
					<dim>1</dim>
					<dim>32</dim>
					<dim>14</dim>
					<dim>14</dim>
				</port>
				<port id="7">
					<dim>1</dim>
					<dim>32</dim>
					<dim>14</dim>
					<dim>14</dim>
				</port>
				<port id="8">
					<dim>1</dim>
					<dim>32</dim>
					<dim>14</dim>
					<dim>14</dim>
				</port>
				<port id="9">
					<dim>1</dim>
					<dim>32</dim>
					<dim>14</dim>
					<dim>14</dim>
				</port>
				<port id="10">
					<dim>1</dim>
					<dim>32</dim>
					<dim>14</dim>
					<dim>14</dim>
				</port>
				<port id="11">
					<dim>1</dim>
					<dim>32</dim>
					<dim>14</dim>
					<dim>14</dim>
				</port>
				<port id="12">
					<dim>1</dim>
					<dim>32</dim>
					<dim>14</dim>
					<dim>14</dim>
				</port>
			</input>
			<output>
				<port id="13" precision="FP32">
					<dim>1</dim>
					<dim>640</dim>
					<dim>14</dim>
					<dim>14</dim>
				</port>
			</output>
		</layer>
		<layer name="Mul1_14369/Fused_Mul_/FusedScaleShift_" type="ScaleShift" precision="FP32" id="195">
			<data broadcast="0" />
			<input>
				<port id="0">
					<dim>1</dim>
					<dim>640</dim>
					<dim>14</dim>
					<dim>14</dim>
				</port>
			</input>
			<output>
				<port id="1" precision="FP32">
					<dim>1</dim>
					<dim>640</dim>
					<dim>14</dim>
					<dim>14</dim>
				</port>
			</output>
			<blobs>
				<biases offset="10180352" size="2560" />
				<weights offset="10182912" size="2560" />
			</blobs>
		</layer>
		<layer name="Relu_228" type="ReLU" precision="FP32" id="196">
			<input>
				<port id="0">
					<dim>1</dim>
					<dim>640</dim>
					<dim>14</dim>
					<dim>14</dim>
				</port>
			</input>
			<output>
				<port id="1" precision="FP32">
					<dim>1</dim>
					<dim>640</dim>
					<dim>14</dim>
					<dim>14</dim>
				</port>
			</output>
		</layer>
		<layer name="Conv_229" type="Convolution" precision="FP32" id="197">
			<data dilations="1,1" group="1" kernel="1,1" output="128" pads_begin="0,0" pads_end="0,0" quantization_level="I8" strides="1,1" />
			<input>
				<port id="0">
					<dim>1</dim>
					<dim>640</dim>
					<dim>14</dim>
					<dim>14</dim>
				</port>
			</input>
			<output>
				<port id="1" precision="FP32">
					<dim>1</dim>
					<dim>128</dim>
					<dim>14</dim>
					<dim>14</dim>
				</port>
			</output>
			<blobs>
				<biases offset="10185472" size="512" />
				<weights offset="10185984" size="327680" />
			</blobs>
		</layer>
		<layer name="Relu_231" type="ReLU" precision="FP32" id="198">
			<input>
				<port id="0">
					<dim>1</dim>
					<dim>128</dim>
					<dim>14</dim>
					<dim>14</dim>
				</port>
			</input>
			<output>
				<port id="1" precision="FP32">
					<dim>1</dim>
					<dim>128</dim>
					<dim>14</dim>
					<dim>14</dim>
				</port>
			</output>
		</layer>
		<layer name="Conv_232" type="Convolution" precision="FP32" id="199">
			<data dilations="1,1" group="1" kernel="3,3" output="32" pads_begin="1,1" pads_end="1,1" quantization_level="I8" strides="1,1" />
			<input>
				<port id="0">
					<dim>1</dim>
					<dim>128</dim>
					<dim>14</dim>
					<dim>14</dim>
				</port>
			</input>
			<output>
				<port id="1" precision="FP32">
					<dim>1</dim>
					<dim>32</dim>
					<dim>14</dim>
					<dim>14</dim>
				</port>
			</output>
			<blobs>
				<weights offset="10513664" size="147456" />
			</blobs>
		</layer>
		<layer name="Concat_233" type="Concat" precision="FP32" id="200">
			<data axis="1" />
			<input>
				<port id="0">
					<dim>1</dim>
					<dim>256</dim>
					<dim>14</dim>
					<dim>14</dim>
				</port>
				<port id="1">
					<dim>1</dim>
					<dim>32</dim>
					<dim>14</dim>
					<dim>14</dim>
				</port>
				<port id="2">
					<dim>1</dim>
					<dim>32</dim>
					<dim>14</dim>
					<dim>14</dim>
				</port>
				<port id="3">
					<dim>1</dim>
					<dim>32</dim>
					<dim>14</dim>
					<dim>14</dim>
				</port>
				<port id="4">
					<dim>1</dim>
					<dim>32</dim>
					<dim>14</dim>
					<dim>14</dim>
				</port>
				<port id="5">
					<dim>1</dim>
					<dim>32</dim>
					<dim>14</dim>
					<dim>14</dim>
				</port>
				<port id="6">
					<dim>1</dim>
					<dim>32</dim>
					<dim>14</dim>
					<dim>14</dim>
				</port>
				<port id="7">
					<dim>1</dim>
					<dim>32</dim>
					<dim>14</dim>
					<dim>14</dim>
				</port>
				<port id="8">
					<dim>1</dim>
					<dim>32</dim>
					<dim>14</dim>
					<dim>14</dim>
				</port>
				<port id="9">
					<dim>1</dim>
					<dim>32</dim>
					<dim>14</dim>
					<dim>14</dim>
				</port>
				<port id="10">
					<dim>1</dim>
					<dim>32</dim>
					<dim>14</dim>
					<dim>14</dim>
				</port>
				<port id="11">
					<dim>1</dim>
					<dim>32</dim>
					<dim>14</dim>
					<dim>14</dim>
				</port>
				<port id="12">
					<dim>1</dim>
					<dim>32</dim>
					<dim>14</dim>
					<dim>14</dim>
				</port>
				<port id="13">
					<dim>1</dim>
					<dim>32</dim>
					<dim>14</dim>
					<dim>14</dim>
				</port>
			</input>
			<output>
				<port id="14" precision="FP32">
					<dim>1</dim>
					<dim>672</dim>
					<dim>14</dim>
					<dim>14</dim>
				</port>
			</output>
		</layer>
		<layer name="Mul1_14393/Fused_Mul_/FusedScaleShift_" type="ScaleShift" precision="FP32" id="201">
			<data broadcast="0" />
			<input>
				<port id="0">
					<dim>1</dim>
					<dim>672</dim>
					<dim>14</dim>
					<dim>14</dim>
				</port>
			</input>
			<output>
				<port id="1" precision="FP32">
					<dim>1</dim>
					<dim>672</dim>
					<dim>14</dim>
					<dim>14</dim>
				</port>
			</output>
			<blobs>
				<biases offset="10661120" size="2688" />
				<weights offset="10663808" size="2688" />
			</blobs>
		</layer>
		<layer name="Relu_235" type="ReLU" precision="FP32" id="202">
			<input>
				<port id="0">
					<dim>1</dim>
					<dim>672</dim>
					<dim>14</dim>
					<dim>14</dim>
				</port>
			</input>
			<output>
				<port id="1" precision="FP32">
					<dim>1</dim>
					<dim>672</dim>
					<dim>14</dim>
					<dim>14</dim>
				</port>
			</output>
		</layer>
		<layer name="Conv_236" type="Convolution" precision="FP32" id="203">
			<data dilations="1,1" group="1" kernel="1,1" output="128" pads_begin="0,0" pads_end="0,0" quantization_level="I8" strides="1,1" />
			<input>
				<port id="0">
					<dim>1</dim>
					<dim>672</dim>
					<dim>14</dim>
					<dim>14</dim>
				</port>
			</input>
			<output>
				<port id="1" precision="FP32">
					<dim>1</dim>
					<dim>128</dim>
					<dim>14</dim>
					<dim>14</dim>
				</port>
			</output>
			<blobs>
				<biases offset="10666496" size="512" />
				<weights offset="10667008" size="344064" />
			</blobs>
		</layer>
		<layer name="Relu_238" type="ReLU" precision="FP32" id="204">
			<input>
				<port id="0">
					<dim>1</dim>
					<dim>128</dim>
					<dim>14</dim>
					<dim>14</dim>
				</port>
			</input>
			<output>
				<port id="1" precision="FP32">
					<dim>1</dim>
					<dim>128</dim>
					<dim>14</dim>
					<dim>14</dim>
				</port>
			</output>
		</layer>
		<layer name="Conv_239" type="Convolution" precision="FP32" id="205">
			<data dilations="1,1" group="1" kernel="3,3" output="32" pads_begin="1,1" pads_end="1,1" quantization_level="I8" strides="1,1" />
			<input>
				<port id="0">
					<dim>1</dim>
					<dim>128</dim>
					<dim>14</dim>
					<dim>14</dim>
				</port>
			</input>
			<output>
				<port id="1" precision="FP32">
					<dim>1</dim>
					<dim>32</dim>
					<dim>14</dim>
					<dim>14</dim>
				</port>
			</output>
			<blobs>
				<weights offset="11011072" size="147456" />
			</blobs>
		</layer>
		<layer name="Concat_240" type="Concat" precision="FP32" id="206">
			<data axis="1" />
			<input>
				<port id="0">
					<dim>1</dim>
					<dim>256</dim>
					<dim>14</dim>
					<dim>14</dim>
				</port>
				<port id="1">
					<dim>1</dim>
					<dim>32</dim>
					<dim>14</dim>
					<dim>14</dim>
				</port>
				<port id="2">
					<dim>1</dim>
					<dim>32</dim>
					<dim>14</dim>
					<dim>14</dim>
				</port>
				<port id="3">
					<dim>1</dim>
					<dim>32</dim>
					<dim>14</dim>
					<dim>14</dim>
				</port>
				<port id="4">
					<dim>1</dim>
					<dim>32</dim>
					<dim>14</dim>
					<dim>14</dim>
				</port>
				<port id="5">
					<dim>1</dim>
					<dim>32</dim>
					<dim>14</dim>
					<dim>14</dim>
				</port>
				<port id="6">
					<dim>1</dim>
					<dim>32</dim>
					<dim>14</dim>
					<dim>14</dim>
				</port>
				<port id="7">
					<dim>1</dim>
					<dim>32</dim>
					<dim>14</dim>
					<dim>14</dim>
				</port>
				<port id="8">
					<dim>1</dim>
					<dim>32</dim>
					<dim>14</dim>
					<dim>14</dim>
				</port>
				<port id="9">
					<dim>1</dim>
					<dim>32</dim>
					<dim>14</dim>
					<dim>14</dim>
				</port>
				<port id="10">
					<dim>1</dim>
					<dim>32</dim>
					<dim>14</dim>
					<dim>14</dim>
				</port>
				<port id="11">
					<dim>1</dim>
					<dim>32</dim>
					<dim>14</dim>
					<dim>14</dim>
				</port>
				<port id="12">
					<dim>1</dim>
					<dim>32</dim>
					<dim>14</dim>
					<dim>14</dim>
				</port>
				<port id="13">
					<dim>1</dim>
					<dim>32</dim>
					<dim>14</dim>
					<dim>14</dim>
				</port>
				<port id="14">
					<dim>1</dim>
					<dim>32</dim>
					<dim>14</dim>
					<dim>14</dim>
				</port>
			</input>
			<output>
				<port id="15" precision="FP32">
					<dim>1</dim>
					<dim>704</dim>
					<dim>14</dim>
					<dim>14</dim>
				</port>
			</output>
		</layer>
		<layer name="Mul1_14417/Fused_Mul_/FusedScaleShift_" type="ScaleShift" precision="FP32" id="207">
			<data broadcast="0" />
			<input>
				<port id="0">
					<dim>1</dim>
					<dim>704</dim>
					<dim>14</dim>
					<dim>14</dim>
				</port>
			</input>
			<output>
				<port id="1" precision="FP32">
					<dim>1</dim>
					<dim>704</dim>
					<dim>14</dim>
					<dim>14</dim>
				</port>
			</output>
			<blobs>
				<biases offset="11158528" size="2816" />
				<weights offset="11161344" size="2816" />
			</blobs>
		</layer>
		<layer name="Relu_242" type="ReLU" precision="FP32" id="208">
			<input>
				<port id="0">
					<dim>1</dim>
					<dim>704</dim>
					<dim>14</dim>
					<dim>14</dim>
				</port>
			</input>
			<output>
				<port id="1" precision="FP32">
					<dim>1</dim>
					<dim>704</dim>
					<dim>14</dim>
					<dim>14</dim>
				</port>
			</output>
		</layer>
		<layer name="Conv_243" type="Convolution" precision="FP32" id="209">
			<data dilations="1,1" group="1" kernel="1,1" output="128" pads_begin="0,0" pads_end="0,0" quantization_level="I8" strides="1,1" />
			<input>
				<port id="0">
					<dim>1</dim>
					<dim>704</dim>
					<dim>14</dim>
					<dim>14</dim>
				</port>
			</input>
			<output>
				<port id="1" precision="FP32">
					<dim>1</dim>
					<dim>128</dim>
					<dim>14</dim>
					<dim>14</dim>
				</port>
			</output>
			<blobs>
				<biases offset="11164160" size="512" />
				<weights offset="11164672" size="360448" />
			</blobs>
		</layer>
		<layer name="Relu_245" type="ReLU" precision="FP32" id="210">
			<input>
				<port id="0">
					<dim>1</dim>
					<dim>128</dim>
					<dim>14</dim>
					<dim>14</dim>
				</port>
			</input>
			<output>
				<port id="1" precision="FP32">
					<dim>1</dim>
					<dim>128</dim>
					<dim>14</dim>
					<dim>14</dim>
				</port>
			</output>
		</layer>
		<layer name="Conv_246" type="Convolution" precision="FP32" id="211">
			<data dilations="1,1" group="1" kernel="3,3" output="32" pads_begin="1,1" pads_end="1,1" quantization_level="I8" strides="1,1" />
			<input>
				<port id="0">
					<dim>1</dim>
					<dim>128</dim>
					<dim>14</dim>
					<dim>14</dim>
				</port>
			</input>
			<output>
				<port id="1" precision="FP32">
					<dim>1</dim>
					<dim>32</dim>
					<dim>14</dim>
					<dim>14</dim>
				</port>
			</output>
			<blobs>
				<weights offset="11525120" size="147456" />
			</blobs>
		</layer>
		<layer name="Concat_247" type="Concat" precision="FP32" id="212">
			<data axis="1" />
			<input>
				<port id="0">
					<dim>1</dim>
					<dim>256</dim>
					<dim>14</dim>
					<dim>14</dim>
				</port>
				<port id="1">
					<dim>1</dim>
					<dim>32</dim>
					<dim>14</dim>
					<dim>14</dim>
				</port>
				<port id="2">
					<dim>1</dim>
					<dim>32</dim>
					<dim>14</dim>
					<dim>14</dim>
				</port>
				<port id="3">
					<dim>1</dim>
					<dim>32</dim>
					<dim>14</dim>
					<dim>14</dim>
				</port>
				<port id="4">
					<dim>1</dim>
					<dim>32</dim>
					<dim>14</dim>
					<dim>14</dim>
				</port>
				<port id="5">
					<dim>1</dim>
					<dim>32</dim>
					<dim>14</dim>
					<dim>14</dim>
				</port>
				<port id="6">
					<dim>1</dim>
					<dim>32</dim>
					<dim>14</dim>
					<dim>14</dim>
				</port>
				<port id="7">
					<dim>1</dim>
					<dim>32</dim>
					<dim>14</dim>
					<dim>14</dim>
				</port>
				<port id="8">
					<dim>1</dim>
					<dim>32</dim>
					<dim>14</dim>
					<dim>14</dim>
				</port>
				<port id="9">
					<dim>1</dim>
					<dim>32</dim>
					<dim>14</dim>
					<dim>14</dim>
				</port>
				<port id="10">
					<dim>1</dim>
					<dim>32</dim>
					<dim>14</dim>
					<dim>14</dim>
				</port>
				<port id="11">
					<dim>1</dim>
					<dim>32</dim>
					<dim>14</dim>
					<dim>14</dim>
				</port>
				<port id="12">
					<dim>1</dim>
					<dim>32</dim>
					<dim>14</dim>
					<dim>14</dim>
				</port>
				<port id="13">
					<dim>1</dim>
					<dim>32</dim>
					<dim>14</dim>
					<dim>14</dim>
				</port>
				<port id="14">
					<dim>1</dim>
					<dim>32</dim>
					<dim>14</dim>
					<dim>14</dim>
				</port>
				<port id="15">
					<dim>1</dim>
					<dim>32</dim>
					<dim>14</dim>
					<dim>14</dim>
				</port>
			</input>
			<output>
				<port id="16" precision="FP32">
					<dim>1</dim>
					<dim>736</dim>
					<dim>14</dim>
					<dim>14</dim>
				</port>
			</output>
		</layer>
		<layer name="Mul1_14441/Fused_Mul_/FusedScaleShift_" type="ScaleShift" precision="FP32" id="213">
			<data broadcast="0" />
			<input>
				<port id="0">
					<dim>1</dim>
					<dim>736</dim>
					<dim>14</dim>
					<dim>14</dim>
				</port>
			</input>
			<output>
				<port id="1" precision="FP32">
					<dim>1</dim>
					<dim>736</dim>
					<dim>14</dim>
					<dim>14</dim>
				</port>
			</output>
			<blobs>
				<biases offset="11672576" size="2944" />
				<weights offset="11675520" size="2944" />
			</blobs>
		</layer>
		<layer name="Relu_249" type="ReLU" precision="FP32" id="214">
			<input>
				<port id="0">
					<dim>1</dim>
					<dim>736</dim>
					<dim>14</dim>
					<dim>14</dim>
				</port>
			</input>
			<output>
				<port id="1" precision="FP32">
					<dim>1</dim>
					<dim>736</dim>
					<dim>14</dim>
					<dim>14</dim>
				</port>
			</output>
		</layer>
		<layer name="Conv_250" type="Convolution" precision="FP32" id="215">
			<data dilations="1,1" group="1" kernel="1,1" output="128" pads_begin="0,0" pads_end="0,0" quantization_level="I8" strides="1,1" />
			<input>
				<port id="0">
					<dim>1</dim>
					<dim>736</dim>
					<dim>14</dim>
					<dim>14</dim>
				</port>
			</input>
			<output>
				<port id="1" precision="FP32">
					<dim>1</dim>
					<dim>128</dim>
					<dim>14</dim>
					<dim>14</dim>
				</port>
			</output>
			<blobs>
				<biases offset="11678464" size="512" />
				<weights offset="11678976" size="376832" />
			</blobs>
		</layer>
		<layer name="Relu_252" type="ReLU" precision="FP32" id="216">
			<input>
				<port id="0">
					<dim>1</dim>
					<dim>128</dim>
					<dim>14</dim>
					<dim>14</dim>
				</port>
			</input>
			<output>
				<port id="1" precision="FP32">
					<dim>1</dim>
					<dim>128</dim>
					<dim>14</dim>
					<dim>14</dim>
				</port>
			</output>
		</layer>
		<layer name="Conv_253" type="Convolution" precision="FP32" id="217">
			<data dilations="1,1" group="1" kernel="3,3" output="32" pads_begin="1,1" pads_end="1,1" quantization_level="I8" strides="1,1" />
			<input>
				<port id="0">
					<dim>1</dim>
					<dim>128</dim>
					<dim>14</dim>
					<dim>14</dim>
				</port>
			</input>
			<output>
				<port id="1" precision="FP32">
					<dim>1</dim>
					<dim>32</dim>
					<dim>14</dim>
					<dim>14</dim>
				</port>
			</output>
			<blobs>
				<weights offset="12055808" size="147456" />
			</blobs>
		</layer>
		<layer name="Concat_254" type="Concat" precision="FP32" id="218">
			<data axis="1" />
			<input>
				<port id="0">
					<dim>1</dim>
					<dim>256</dim>
					<dim>14</dim>
					<dim>14</dim>
				</port>
				<port id="1">
					<dim>1</dim>
					<dim>32</dim>
					<dim>14</dim>
					<dim>14</dim>
				</port>
				<port id="2">
					<dim>1</dim>
					<dim>32</dim>
					<dim>14</dim>
					<dim>14</dim>
				</port>
				<port id="3">
					<dim>1</dim>
					<dim>32</dim>
					<dim>14</dim>
					<dim>14</dim>
				</port>
				<port id="4">
					<dim>1</dim>
					<dim>32</dim>
					<dim>14</dim>
					<dim>14</dim>
				</port>
				<port id="5">
					<dim>1</dim>
					<dim>32</dim>
					<dim>14</dim>
					<dim>14</dim>
				</port>
				<port id="6">
					<dim>1</dim>
					<dim>32</dim>
					<dim>14</dim>
					<dim>14</dim>
				</port>
				<port id="7">
					<dim>1</dim>
					<dim>32</dim>
					<dim>14</dim>
					<dim>14</dim>
				</port>
				<port id="8">
					<dim>1</dim>
					<dim>32</dim>
					<dim>14</dim>
					<dim>14</dim>
				</port>
				<port id="9">
					<dim>1</dim>
					<dim>32</dim>
					<dim>14</dim>
					<dim>14</dim>
				</port>
				<port id="10">
					<dim>1</dim>
					<dim>32</dim>
					<dim>14</dim>
					<dim>14</dim>
				</port>
				<port id="11">
					<dim>1</dim>
					<dim>32</dim>
					<dim>14</dim>
					<dim>14</dim>
				</port>
				<port id="12">
					<dim>1</dim>
					<dim>32</dim>
					<dim>14</dim>
					<dim>14</dim>
				</port>
				<port id="13">
					<dim>1</dim>
					<dim>32</dim>
					<dim>14</dim>
					<dim>14</dim>
				</port>
				<port id="14">
					<dim>1</dim>
					<dim>32</dim>
					<dim>14</dim>
					<dim>14</dim>
				</port>
				<port id="15">
					<dim>1</dim>
					<dim>32</dim>
					<dim>14</dim>
					<dim>14</dim>
				</port>
				<port id="16">
					<dim>1</dim>
					<dim>32</dim>
					<dim>14</dim>
					<dim>14</dim>
				</port>
			</input>
			<output>
				<port id="17" precision="FP32">
					<dim>1</dim>
					<dim>768</dim>
					<dim>14</dim>
					<dim>14</dim>
				</port>
			</output>
		</layer>
		<layer name="Mul1_14465/Fused_Mul_/FusedScaleShift_" type="ScaleShift" precision="FP32" id="219">
			<data broadcast="0" />
			<input>
				<port id="0">
					<dim>1</dim>
					<dim>768</dim>
					<dim>14</dim>
					<dim>14</dim>
				</port>
			</input>
			<output>
				<port id="1" precision="FP32">
					<dim>1</dim>
					<dim>768</dim>
					<dim>14</dim>
					<dim>14</dim>
				</port>
			</output>
			<blobs>
				<biases offset="12203264" size="3072" />
				<weights offset="12206336" size="3072" />
			</blobs>
		</layer>
		<layer name="Relu_256" type="ReLU" precision="FP32" id="220">
			<input>
				<port id="0">
					<dim>1</dim>
					<dim>768</dim>
					<dim>14</dim>
					<dim>14</dim>
				</port>
			</input>
			<output>
				<port id="1" precision="FP32">
					<dim>1</dim>
					<dim>768</dim>
					<dim>14</dim>
					<dim>14</dim>
				</port>
			</output>
		</layer>
		<layer name="Conv_257" type="Convolution" precision="FP32" id="221">
			<data dilations="1,1" group="1" kernel="1,1" output="128" pads_begin="0,0" pads_end="0,0" quantization_level="I8" strides="1,1" />
			<input>
				<port id="0">
					<dim>1</dim>
					<dim>768</dim>
					<dim>14</dim>
					<dim>14</dim>
				</port>
			</input>
			<output>
				<port id="1" precision="FP32">
					<dim>1</dim>
					<dim>128</dim>
					<dim>14</dim>
					<dim>14</dim>
				</port>
			</output>
			<blobs>
				<biases offset="12209408" size="512" />
				<weights offset="12209920" size="393216" />
			</blobs>
		</layer>
		<layer name="Relu_259" type="ReLU" precision="FP32" id="222">
			<input>
				<port id="0">
					<dim>1</dim>
					<dim>128</dim>
					<dim>14</dim>
					<dim>14</dim>
				</port>
			</input>
			<output>
				<port id="1" precision="FP32">
					<dim>1</dim>
					<dim>128</dim>
					<dim>14</dim>
					<dim>14</dim>
				</port>
			</output>
		</layer>
		<layer name="Conv_260" type="Convolution" precision="FP32" id="223">
			<data dilations="1,1" group="1" kernel="3,3" output="32" pads_begin="1,1" pads_end="1,1" quantization_level="I8" strides="1,1" />
			<input>
				<port id="0">
					<dim>1</dim>
					<dim>128</dim>
					<dim>14</dim>
					<dim>14</dim>
				</port>
			</input>
			<output>
				<port id="1" precision="FP32">
					<dim>1</dim>
					<dim>32</dim>
					<dim>14</dim>
					<dim>14</dim>
				</port>
			</output>
			<blobs>
				<weights offset="12603136" size="147456" />
			</blobs>
		</layer>
		<layer name="Concat_261" type="Concat" precision="FP32" id="224">
			<data axis="1" />
			<input>
				<port id="0">
					<dim>1</dim>
					<dim>256</dim>
					<dim>14</dim>
					<dim>14</dim>
				</port>
				<port id="1">
					<dim>1</dim>
					<dim>32</dim>
					<dim>14</dim>
					<dim>14</dim>
				</port>
				<port id="2">
					<dim>1</dim>
					<dim>32</dim>
					<dim>14</dim>
					<dim>14</dim>
				</port>
				<port id="3">
					<dim>1</dim>
					<dim>32</dim>
					<dim>14</dim>
					<dim>14</dim>
				</port>
				<port id="4">
					<dim>1</dim>
					<dim>32</dim>
					<dim>14</dim>
					<dim>14</dim>
				</port>
				<port id="5">
					<dim>1</dim>
					<dim>32</dim>
					<dim>14</dim>
					<dim>14</dim>
				</port>
				<port id="6">
					<dim>1</dim>
					<dim>32</dim>
					<dim>14</dim>
					<dim>14</dim>
				</port>
				<port id="7">
					<dim>1</dim>
					<dim>32</dim>
					<dim>14</dim>
					<dim>14</dim>
				</port>
				<port id="8">
					<dim>1</dim>
					<dim>32</dim>
					<dim>14</dim>
					<dim>14</dim>
				</port>
				<port id="9">
					<dim>1</dim>
					<dim>32</dim>
					<dim>14</dim>
					<dim>14</dim>
				</port>
				<port id="10">
					<dim>1</dim>
					<dim>32</dim>
					<dim>14</dim>
					<dim>14</dim>
				</port>
				<port id="11">
					<dim>1</dim>
					<dim>32</dim>
					<dim>14</dim>
					<dim>14</dim>
				</port>
				<port id="12">
					<dim>1</dim>
					<dim>32</dim>
					<dim>14</dim>
					<dim>14</dim>
				</port>
				<port id="13">
					<dim>1</dim>
					<dim>32</dim>
					<dim>14</dim>
					<dim>14</dim>
				</port>
				<port id="14">
					<dim>1</dim>
					<dim>32</dim>
					<dim>14</dim>
					<dim>14</dim>
				</port>
				<port id="15">
					<dim>1</dim>
					<dim>32</dim>
					<dim>14</dim>
					<dim>14</dim>
				</port>
				<port id="16">
					<dim>1</dim>
					<dim>32</dim>
					<dim>14</dim>
					<dim>14</dim>
				</port>
				<port id="17">
					<dim>1</dim>
					<dim>32</dim>
					<dim>14</dim>
					<dim>14</dim>
				</port>
			</input>
			<output>
				<port id="18" precision="FP32">
					<dim>1</dim>
					<dim>800</dim>
					<dim>14</dim>
					<dim>14</dim>
				</port>
			</output>
		</layer>
		<layer name="Mul1_14489/Fused_Mul_/FusedScaleShift_" type="ScaleShift" precision="FP32" id="225">
			<data broadcast="0" />
			<input>
				<port id="0">
					<dim>1</dim>
					<dim>800</dim>
					<dim>14</dim>
					<dim>14</dim>
				</port>
			</input>
			<output>
				<port id="1" precision="FP32">
					<dim>1</dim>
					<dim>800</dim>
					<dim>14</dim>
					<dim>14</dim>
				</port>
			</output>
			<blobs>
				<biases offset="12750592" size="3200" />
				<weights offset="12753792" size="3200" />
			</blobs>
		</layer>
		<layer name="Relu_263" type="ReLU" precision="FP32" id="226">
			<input>
				<port id="0">
					<dim>1</dim>
					<dim>800</dim>
					<dim>14</dim>
					<dim>14</dim>
				</port>
			</input>
			<output>
				<port id="1" precision="FP32">
					<dim>1</dim>
					<dim>800</dim>
					<dim>14</dim>
					<dim>14</dim>
				</port>
			</output>
		</layer>
		<layer name="Conv_264" type="Convolution" precision="FP32" id="227">
			<data dilations="1,1" group="1" kernel="1,1" output="128" pads_begin="0,0" pads_end="0,0" quantization_level="I8" strides="1,1" />
			<input>
				<port id="0">
					<dim>1</dim>
					<dim>800</dim>
					<dim>14</dim>
					<dim>14</dim>
				</port>
			</input>
			<output>
				<port id="1" precision="FP32">
					<dim>1</dim>
					<dim>128</dim>
					<dim>14</dim>
					<dim>14</dim>
				</port>
			</output>
			<blobs>
				<biases offset="12756992" size="512" />
				<weights offset="12757504" size="409600" />
			</blobs>
		</layer>
		<layer name="Relu_266" type="ReLU" precision="FP32" id="228">
			<input>
				<port id="0">
					<dim>1</dim>
					<dim>128</dim>
					<dim>14</dim>
					<dim>14</dim>
				</port>
			</input>
			<output>
				<port id="1" precision="FP32">
					<dim>1</dim>
					<dim>128</dim>
					<dim>14</dim>
					<dim>14</dim>
				</port>
			</output>
		</layer>
		<layer name="Conv_267" type="Convolution" precision="FP32" id="229">
			<data dilations="1,1" group="1" kernel="3,3" output="32" pads_begin="1,1" pads_end="1,1" quantization_level="I8" strides="1,1" />
			<input>
				<port id="0">
					<dim>1</dim>
					<dim>128</dim>
					<dim>14</dim>
					<dim>14</dim>
				</port>
			</input>
			<output>
				<port id="1" precision="FP32">
					<dim>1</dim>
					<dim>32</dim>
					<dim>14</dim>
					<dim>14</dim>
				</port>
			</output>
			<blobs>
				<weights offset="13167104" size="147456" />
			</blobs>
		</layer>
		<layer name="Concat_268" type="Concat" precision="FP32" id="230">
			<data axis="1" />
			<input>
				<port id="0">
					<dim>1</dim>
					<dim>256</dim>
					<dim>14</dim>
					<dim>14</dim>
				</port>
				<port id="1">
					<dim>1</dim>
					<dim>32</dim>
					<dim>14</dim>
					<dim>14</dim>
				</port>
				<port id="2">
					<dim>1</dim>
					<dim>32</dim>
					<dim>14</dim>
					<dim>14</dim>
				</port>
				<port id="3">
					<dim>1</dim>
					<dim>32</dim>
					<dim>14</dim>
					<dim>14</dim>
				</port>
				<port id="4">
					<dim>1</dim>
					<dim>32</dim>
					<dim>14</dim>
					<dim>14</dim>
				</port>
				<port id="5">
					<dim>1</dim>
					<dim>32</dim>
					<dim>14</dim>
					<dim>14</dim>
				</port>
				<port id="6">
					<dim>1</dim>
					<dim>32</dim>
					<dim>14</dim>
					<dim>14</dim>
				</port>
				<port id="7">
					<dim>1</dim>
					<dim>32</dim>
					<dim>14</dim>
					<dim>14</dim>
				</port>
				<port id="8">
					<dim>1</dim>
					<dim>32</dim>
					<dim>14</dim>
					<dim>14</dim>
				</port>
				<port id="9">
					<dim>1</dim>
					<dim>32</dim>
					<dim>14</dim>
					<dim>14</dim>
				</port>
				<port id="10">
					<dim>1</dim>
					<dim>32</dim>
					<dim>14</dim>
					<dim>14</dim>
				</port>
				<port id="11">
					<dim>1</dim>
					<dim>32</dim>
					<dim>14</dim>
					<dim>14</dim>
				</port>
				<port id="12">
					<dim>1</dim>
					<dim>32</dim>
					<dim>14</dim>
					<dim>14</dim>
				</port>
				<port id="13">
					<dim>1</dim>
					<dim>32</dim>
					<dim>14</dim>
					<dim>14</dim>
				</port>
				<port id="14">
					<dim>1</dim>
					<dim>32</dim>
					<dim>14</dim>
					<dim>14</dim>
				</port>
				<port id="15">
					<dim>1</dim>
					<dim>32</dim>
					<dim>14</dim>
					<dim>14</dim>
				</port>
				<port id="16">
					<dim>1</dim>
					<dim>32</dim>
					<dim>14</dim>
					<dim>14</dim>
				</port>
				<port id="17">
					<dim>1</dim>
					<dim>32</dim>
					<dim>14</dim>
					<dim>14</dim>
				</port>
				<port id="18">
					<dim>1</dim>
					<dim>32</dim>
					<dim>14</dim>
					<dim>14</dim>
				</port>
			</input>
			<output>
				<port id="19" precision="FP32">
					<dim>1</dim>
					<dim>832</dim>
					<dim>14</dim>
					<dim>14</dim>
				</port>
			</output>
		</layer>
		<layer name="Mul1_14513/Fused_Mul_/FusedScaleShift_" type="ScaleShift" precision="FP32" id="231">
			<data broadcast="0" />
			<input>
				<port id="0">
					<dim>1</dim>
					<dim>832</dim>
					<dim>14</dim>
					<dim>14</dim>
				</port>
			</input>
			<output>
				<port id="1" precision="FP32">
					<dim>1</dim>
					<dim>832</dim>
					<dim>14</dim>
					<dim>14</dim>
				</port>
			</output>
			<blobs>
				<biases offset="13314560" size="3328" />
				<weights offset="13317888" size="3328" />
			</blobs>
		</layer>
		<layer name="Relu_270" type="ReLU" precision="FP32" id="232">
			<input>
				<port id="0">
					<dim>1</dim>
					<dim>832</dim>
					<dim>14</dim>
					<dim>14</dim>
				</port>
			</input>
			<output>
				<port id="1" precision="FP32">
					<dim>1</dim>
					<dim>832</dim>
					<dim>14</dim>
					<dim>14</dim>
				</port>
			</output>
		</layer>
		<layer name="Conv_271" type="Convolution" precision="FP32" id="233">
			<data dilations="1,1" group="1" kernel="1,1" output="128" pads_begin="0,0" pads_end="0,0" quantization_level="I8" strides="1,1" />
			<input>
				<port id="0">
					<dim>1</dim>
					<dim>832</dim>
					<dim>14</dim>
					<dim>14</dim>
				</port>
			</input>
			<output>
				<port id="1" precision="FP32">
					<dim>1</dim>
					<dim>128</dim>
					<dim>14</dim>
					<dim>14</dim>
				</port>
			</output>
			<blobs>
				<biases offset="13321216" size="512" />
				<weights offset="13321728" size="425984" />
			</blobs>
		</layer>
		<layer name="Relu_273" type="ReLU" precision="FP32" id="234">
			<input>
				<port id="0">
					<dim>1</dim>
					<dim>128</dim>
					<dim>14</dim>
					<dim>14</dim>
				</port>
			</input>
			<output>
				<port id="1" precision="FP32">
					<dim>1</dim>
					<dim>128</dim>
					<dim>14</dim>
					<dim>14</dim>
				</port>
			</output>
		</layer>
		<layer name="Conv_274" type="Convolution" precision="FP32" id="235">
			<data dilations="1,1" group="1" kernel="3,3" output="32" pads_begin="1,1" pads_end="1,1" quantization_level="I8" strides="1,1" />
			<input>
				<port id="0">
					<dim>1</dim>
					<dim>128</dim>
					<dim>14</dim>
					<dim>14</dim>
				</port>
			</input>
			<output>
				<port id="1" precision="FP32">
					<dim>1</dim>
					<dim>32</dim>
					<dim>14</dim>
					<dim>14</dim>
				</port>
			</output>
			<blobs>
				<weights offset="13747712" size="147456" />
			</blobs>
		</layer>
		<layer name="Concat_275" type="Concat" precision="FP32" id="236">
			<data axis="1" />
			<input>
				<port id="0">
					<dim>1</dim>
					<dim>256</dim>
					<dim>14</dim>
					<dim>14</dim>
				</port>
				<port id="1">
					<dim>1</dim>
					<dim>32</dim>
					<dim>14</dim>
					<dim>14</dim>
				</port>
				<port id="2">
					<dim>1</dim>
					<dim>32</dim>
					<dim>14</dim>
					<dim>14</dim>
				</port>
				<port id="3">
					<dim>1</dim>
					<dim>32</dim>
					<dim>14</dim>
					<dim>14</dim>
				</port>
				<port id="4">
					<dim>1</dim>
					<dim>32</dim>
					<dim>14</dim>
					<dim>14</dim>
				</port>
				<port id="5">
					<dim>1</dim>
					<dim>32</dim>
					<dim>14</dim>
					<dim>14</dim>
				</port>
				<port id="6">
					<dim>1</dim>
					<dim>32</dim>
					<dim>14</dim>
					<dim>14</dim>
				</port>
				<port id="7">
					<dim>1</dim>
					<dim>32</dim>
					<dim>14</dim>
					<dim>14</dim>
				</port>
				<port id="8">
					<dim>1</dim>
					<dim>32</dim>
					<dim>14</dim>
					<dim>14</dim>
				</port>
				<port id="9">
					<dim>1</dim>
					<dim>32</dim>
					<dim>14</dim>
					<dim>14</dim>
				</port>
				<port id="10">
					<dim>1</dim>
					<dim>32</dim>
					<dim>14</dim>
					<dim>14</dim>
				</port>
				<port id="11">
					<dim>1</dim>
					<dim>32</dim>
					<dim>14</dim>
					<dim>14</dim>
				</port>
				<port id="12">
					<dim>1</dim>
					<dim>32</dim>
					<dim>14</dim>
					<dim>14</dim>
				</port>
				<port id="13">
					<dim>1</dim>
					<dim>32</dim>
					<dim>14</dim>
					<dim>14</dim>
				</port>
				<port id="14">
					<dim>1</dim>
					<dim>32</dim>
					<dim>14</dim>
					<dim>14</dim>
				</port>
				<port id="15">
					<dim>1</dim>
					<dim>32</dim>
					<dim>14</dim>
					<dim>14</dim>
				</port>
				<port id="16">
					<dim>1</dim>
					<dim>32</dim>
					<dim>14</dim>
					<dim>14</dim>
				</port>
				<port id="17">
					<dim>1</dim>
					<dim>32</dim>
					<dim>14</dim>
					<dim>14</dim>
				</port>
				<port id="18">
					<dim>1</dim>
					<dim>32</dim>
					<dim>14</dim>
					<dim>14</dim>
				</port>
				<port id="19">
					<dim>1</dim>
					<dim>32</dim>
					<dim>14</dim>
					<dim>14</dim>
				</port>
			</input>
			<output>
				<port id="20" precision="FP32">
					<dim>1</dim>
					<dim>864</dim>
					<dim>14</dim>
					<dim>14</dim>
				</port>
			</output>
		</layer>
		<layer name="Mul1_14537/Fused_Mul_/FusedScaleShift_" type="ScaleShift" precision="FP32" id="237">
			<data broadcast="0" />
			<input>
				<port id="0">
					<dim>1</dim>
					<dim>864</dim>
					<dim>14</dim>
					<dim>14</dim>
				</port>
			</input>
			<output>
				<port id="1" precision="FP32">
					<dim>1</dim>
					<dim>864</dim>
					<dim>14</dim>
					<dim>14</dim>
				</port>
			</output>
			<blobs>
				<biases offset="13895168" size="3456" />
				<weights offset="13898624" size="3456" />
			</blobs>
		</layer>
		<layer name="Relu_277" type="ReLU" precision="FP32" id="238">
			<input>
				<port id="0">
					<dim>1</dim>
					<dim>864</dim>
					<dim>14</dim>
					<dim>14</dim>
				</port>
			</input>
			<output>
				<port id="1" precision="FP32">
					<dim>1</dim>
					<dim>864</dim>
					<dim>14</dim>
					<dim>14</dim>
				</port>
			</output>
		</layer>
		<layer name="Conv_278" type="Convolution" precision="FP32" id="239">
			<data dilations="1,1" group="1" kernel="1,1" output="128" pads_begin="0,0" pads_end="0,0" quantization_level="I8" strides="1,1" />
			<input>
				<port id="0">
					<dim>1</dim>
					<dim>864</dim>
					<dim>14</dim>
					<dim>14</dim>
				</port>
			</input>
			<output>
				<port id="1" precision="FP32">
					<dim>1</dim>
					<dim>128</dim>
					<dim>14</dim>
					<dim>14</dim>
				</port>
			</output>
			<blobs>
				<biases offset="13902080" size="512" />
				<weights offset="13902592" size="442368" />
			</blobs>
		</layer>
		<layer name="Relu_280" type="ReLU" precision="FP32" id="240">
			<input>
				<port id="0">
					<dim>1</dim>
					<dim>128</dim>
					<dim>14</dim>
					<dim>14</dim>
				</port>
			</input>
			<output>
				<port id="1" precision="FP32">
					<dim>1</dim>
					<dim>128</dim>
					<dim>14</dim>
					<dim>14</dim>
				</port>
			</output>
		</layer>
		<layer name="Conv_281" type="Convolution" precision="FP32" id="241">
			<data dilations="1,1" group="1" kernel="3,3" output="32" pads_begin="1,1" pads_end="1,1" quantization_level="I8" strides="1,1" />
			<input>
				<port id="0">
					<dim>1</dim>
					<dim>128</dim>
					<dim>14</dim>
					<dim>14</dim>
				</port>
			</input>
			<output>
				<port id="1" precision="FP32">
					<dim>1</dim>
					<dim>32</dim>
					<dim>14</dim>
					<dim>14</dim>
				</port>
			</output>
			<blobs>
				<weights offset="14344960" size="147456" />
			</blobs>
		</layer>
		<layer name="Concat_282" type="Concat" precision="FP32" id="242">
			<data axis="1" />
			<input>
				<port id="0">
					<dim>1</dim>
					<dim>256</dim>
					<dim>14</dim>
					<dim>14</dim>
				</port>
				<port id="1">
					<dim>1</dim>
					<dim>32</dim>
					<dim>14</dim>
					<dim>14</dim>
				</port>
				<port id="2">
					<dim>1</dim>
					<dim>32</dim>
					<dim>14</dim>
					<dim>14</dim>
				</port>
				<port id="3">
					<dim>1</dim>
					<dim>32</dim>
					<dim>14</dim>
					<dim>14</dim>
				</port>
				<port id="4">
					<dim>1</dim>
					<dim>32</dim>
					<dim>14</dim>
					<dim>14</dim>
				</port>
				<port id="5">
					<dim>1</dim>
					<dim>32</dim>
					<dim>14</dim>
					<dim>14</dim>
				</port>
				<port id="6">
					<dim>1</dim>
					<dim>32</dim>
					<dim>14</dim>
					<dim>14</dim>
				</port>
				<port id="7">
					<dim>1</dim>
					<dim>32</dim>
					<dim>14</dim>
					<dim>14</dim>
				</port>
				<port id="8">
					<dim>1</dim>
					<dim>32</dim>
					<dim>14</dim>
					<dim>14</dim>
				</port>
				<port id="9">
					<dim>1</dim>
					<dim>32</dim>
					<dim>14</dim>
					<dim>14</dim>
				</port>
				<port id="10">
					<dim>1</dim>
					<dim>32</dim>
					<dim>14</dim>
					<dim>14</dim>
				</port>
				<port id="11">
					<dim>1</dim>
					<dim>32</dim>
					<dim>14</dim>
					<dim>14</dim>
				</port>
				<port id="12">
					<dim>1</dim>
					<dim>32</dim>
					<dim>14</dim>
					<dim>14</dim>
				</port>
				<port id="13">
					<dim>1</dim>
					<dim>32</dim>
					<dim>14</dim>
					<dim>14</dim>
				</port>
				<port id="14">
					<dim>1</dim>
					<dim>32</dim>
					<dim>14</dim>
					<dim>14</dim>
				</port>
				<port id="15">
					<dim>1</dim>
					<dim>32</dim>
					<dim>14</dim>
					<dim>14</dim>
				</port>
				<port id="16">
					<dim>1</dim>
					<dim>32</dim>
					<dim>14</dim>
					<dim>14</dim>
				</port>
				<port id="17">
					<dim>1</dim>
					<dim>32</dim>
					<dim>14</dim>
					<dim>14</dim>
				</port>
				<port id="18">
					<dim>1</dim>
					<dim>32</dim>
					<dim>14</dim>
					<dim>14</dim>
				</port>
				<port id="19">
					<dim>1</dim>
					<dim>32</dim>
					<dim>14</dim>
					<dim>14</dim>
				</port>
				<port id="20">
					<dim>1</dim>
					<dim>32</dim>
					<dim>14</dim>
					<dim>14</dim>
				</port>
			</input>
			<output>
				<port id="21" precision="FP32">
					<dim>1</dim>
					<dim>896</dim>
					<dim>14</dim>
					<dim>14</dim>
				</port>
			</output>
		</layer>
		<layer name="Mul1_14561/Fused_Mul_/FusedScaleShift_" type="ScaleShift" precision="FP32" id="243">
			<data broadcast="0" />
			<input>
				<port id="0">
					<dim>1</dim>
					<dim>896</dim>
					<dim>14</dim>
					<dim>14</dim>
				</port>
			</input>
			<output>
				<port id="1" precision="FP32">
					<dim>1</dim>
					<dim>896</dim>
					<dim>14</dim>
					<dim>14</dim>
				</port>
			</output>
			<blobs>
				<biases offset="14492416" size="3584" />
				<weights offset="14496000" size="3584" />
			</blobs>
		</layer>
		<layer name="Relu_284" type="ReLU" precision="FP32" id="244">
			<input>
				<port id="0">
					<dim>1</dim>
					<dim>896</dim>
					<dim>14</dim>
					<dim>14</dim>
				</port>
			</input>
			<output>
				<port id="1" precision="FP32">
					<dim>1</dim>
					<dim>896</dim>
					<dim>14</dim>
					<dim>14</dim>
				</port>
			</output>
		</layer>
		<layer name="Conv_285" type="Convolution" precision="FP32" id="245">
			<data dilations="1,1" group="1" kernel="1,1" output="128" pads_begin="0,0" pads_end="0,0" quantization_level="I8" strides="1,1" />
			<input>
				<port id="0">
					<dim>1</dim>
					<dim>896</dim>
					<dim>14</dim>
					<dim>14</dim>
				</port>
			</input>
			<output>
				<port id="1" precision="FP32">
					<dim>1</dim>
					<dim>128</dim>
					<dim>14</dim>
					<dim>14</dim>
				</port>
			</output>
			<blobs>
				<biases offset="14499584" size="512" />
				<weights offset="14500096" size="458752" />
			</blobs>
		</layer>
		<layer name="Relu_287" type="ReLU" precision="FP32" id="246">
			<input>
				<port id="0">
					<dim>1</dim>
					<dim>128</dim>
					<dim>14</dim>
					<dim>14</dim>
				</port>
			</input>
			<output>
				<port id="1" precision="FP32">
					<dim>1</dim>
					<dim>128</dim>
					<dim>14</dim>
					<dim>14</dim>
				</port>
			</output>
		</layer>
		<layer name="Conv_288" type="Convolution" precision="FP32" id="247">
			<data dilations="1,1" group="1" kernel="3,3" output="32" pads_begin="1,1" pads_end="1,1" quantization_level="I8" strides="1,1" />
			<input>
				<port id="0">
					<dim>1</dim>
					<dim>128</dim>
					<dim>14</dim>
					<dim>14</dim>
				</port>
			</input>
			<output>
				<port id="1" precision="FP32">
					<dim>1</dim>
					<dim>32</dim>
					<dim>14</dim>
					<dim>14</dim>
				</port>
			</output>
			<blobs>
				<weights offset="14958848" size="147456" />
			</blobs>
		</layer>
		<layer name="Concat_289" type="Concat" precision="FP32" id="248">
			<data axis="1" />
			<input>
				<port id="0">
					<dim>1</dim>
					<dim>256</dim>
					<dim>14</dim>
					<dim>14</dim>
				</port>
				<port id="1">
					<dim>1</dim>
					<dim>32</dim>
					<dim>14</dim>
					<dim>14</dim>
				</port>
				<port id="2">
					<dim>1</dim>
					<dim>32</dim>
					<dim>14</dim>
					<dim>14</dim>
				</port>
				<port id="3">
					<dim>1</dim>
					<dim>32</dim>
					<dim>14</dim>
					<dim>14</dim>
				</port>
				<port id="4">
					<dim>1</dim>
					<dim>32</dim>
					<dim>14</dim>
					<dim>14</dim>
				</port>
				<port id="5">
					<dim>1</dim>
					<dim>32</dim>
					<dim>14</dim>
					<dim>14</dim>
				</port>
				<port id="6">
					<dim>1</dim>
					<dim>32</dim>
					<dim>14</dim>
					<dim>14</dim>
				</port>
				<port id="7">
					<dim>1</dim>
					<dim>32</dim>
					<dim>14</dim>
					<dim>14</dim>
				</port>
				<port id="8">
					<dim>1</dim>
					<dim>32</dim>
					<dim>14</dim>
					<dim>14</dim>
				</port>
				<port id="9">
					<dim>1</dim>
					<dim>32</dim>
					<dim>14</dim>
					<dim>14</dim>
				</port>
				<port id="10">
					<dim>1</dim>
					<dim>32</dim>
					<dim>14</dim>
					<dim>14</dim>
				</port>
				<port id="11">
					<dim>1</dim>
					<dim>32</dim>
					<dim>14</dim>
					<dim>14</dim>
				</port>
				<port id="12">
					<dim>1</dim>
					<dim>32</dim>
					<dim>14</dim>
					<dim>14</dim>
				</port>
				<port id="13">
					<dim>1</dim>
					<dim>32</dim>
					<dim>14</dim>
					<dim>14</dim>
				</port>
				<port id="14">
					<dim>1</dim>
					<dim>32</dim>
					<dim>14</dim>
					<dim>14</dim>
				</port>
				<port id="15">
					<dim>1</dim>
					<dim>32</dim>
					<dim>14</dim>
					<dim>14</dim>
				</port>
				<port id="16">
					<dim>1</dim>
					<dim>32</dim>
					<dim>14</dim>
					<dim>14</dim>
				</port>
				<port id="17">
					<dim>1</dim>
					<dim>32</dim>
					<dim>14</dim>
					<dim>14</dim>
				</port>
				<port id="18">
					<dim>1</dim>
					<dim>32</dim>
					<dim>14</dim>
					<dim>14</dim>
				</port>
				<port id="19">
					<dim>1</dim>
					<dim>32</dim>
					<dim>14</dim>
					<dim>14</dim>
				</port>
				<port id="20">
					<dim>1</dim>
					<dim>32</dim>
					<dim>14</dim>
					<dim>14</dim>
				</port>
				<port id="21">
					<dim>1</dim>
					<dim>32</dim>
					<dim>14</dim>
					<dim>14</dim>
				</port>
			</input>
			<output>
				<port id="22" precision="FP32">
					<dim>1</dim>
					<dim>928</dim>
					<dim>14</dim>
					<dim>14</dim>
				</port>
			</output>
		</layer>
		<layer name="Mul1_14585/Fused_Mul_/FusedScaleShift_" type="ScaleShift" precision="FP32" id="249">
			<data broadcast="0" />
			<input>
				<port id="0">
					<dim>1</dim>
					<dim>928</dim>
					<dim>14</dim>
					<dim>14</dim>
				</port>
			</input>
			<output>
				<port id="1" precision="FP32">
					<dim>1</dim>
					<dim>928</dim>
					<dim>14</dim>
					<dim>14</dim>
				</port>
			</output>
			<blobs>
				<biases offset="15106304" size="3712" />
				<weights offset="15110016" size="3712" />
			</blobs>
		</layer>
…
		<edge from-layer="288" from-port="1" to-layer="319" to-port="3" />
		<edge from-layer="288" from-port="1" to-layer="325" to-port="3" />
		<edge from-layer="288" from-port="1" to-layer="331" to-port="3" />
		<edge from-layer="288" from-port="1" to-layer="337" to-port="3" />
		<edge from-layer="288" from-port="1" to-layer="343" to-port="3" />
		<edge from-layer="288" from-port="1" to-layer="349" to-port="3" />
		<edge from-layer="288" from-port="1" to-layer="355" to-port="3" />
		<edge from-layer="288" from-port="1" to-layer="361" to-port="3" />
		<edge from-layer="288" from-port="1" to-layer="367" to-port="3" />
		<edge from-layer="289" from-port="4" to-layer="290" to-port="0" />
		<edge from-layer="290" from-port="1" to-layer="291" to-port="0" />
		<edge from-layer="291" from-port="1" to-layer="292" to-port="0" />
		<edge from-layer="292" from-port="1" to-layer="293" to-port="0" />
		<edge from-layer="293" from-port="1" to-layer="294" to-port="0" />
		<edge from-layer="294" from-port="1" to-layer="295" to-port="4" />
		<edge from-layer="294" from-port="1" to-layer="301" to-port="4" />
		<edge from-layer="294" from-port="1" to-layer="307" to-port="4" />
		<edge from-layer="294" from-port="1" to-layer="313" to-port="4" />
		<edge from-layer="294" from-port="1" to-layer="319" to-port="4" />
		<edge from-layer="294" from-port="1" to-layer="325" to-port="4" />
		<edge from-layer="294" from-port="1" to-layer="331" to-port="4" />
		<edge from-layer="294" from-port="1" to-layer="337" to-port="4" />
		<edge from-layer="294" from-port="1" to-layer="343" to-port="4" />
		<edge from-layer="294" from-port="1" to-layer="349" to-port="4" />
		<edge from-layer="294" from-port="1" to-layer="355" to-port="4" />
		<edge from-layer="294" from-port="1" to-layer="361" to-port="4" />
		<edge from-layer="294" from-port="1" to-layer="367" to-port="4" />
		<edge from-layer="295" from-port="5" to-layer="296" to-port="0" />
		<edge from-layer="296" from-port="1" to-layer="297" to-port="0" />
		<edge from-layer="297" from-port="1" to-layer="298" to-port="0" />
		<edge from-layer="298" from-port="1" to-layer="299" to-port="0" />
		<edge from-layer="299" from-port="1" to-layer="300" to-port="0" />
		<edge from-layer="300" from-port="1" to-layer="301" to-port="5" />
		<edge from-layer="300" from-port="1" to-layer="307" to-port="5" />
		<edge from-layer="300" from-port="1" to-layer="313" to-port="5" />
		<edge from-layer="300" from-port="1" to-layer="319" to-port="5" />
		<edge from-layer="300" from-port="1" to-layer="325" to-port="5" />
		<edge from-layer="300" from-port="1" to-layer="331" to-port="5" />
		<edge from-layer="300" from-port="1" to-layer="337" to-port="5" />
		<edge from-layer="300" from-port="1" to-layer="343" to-port="5" />
		<edge from-layer="300" from-port="1" to-layer="349" to-port="5" />
		<edge from-layer="300" from-port="1" to-layer="355" to-port="5" />
		<edge from-layer="300" from-port="1" to-layer="361" to-port="5" />
		<edge from-layer="300" from-port="1" to-layer="367" to-port="5" />
		<edge from-layer="301" from-port="6" to-layer="302" to-port="0" />
		<edge from-layer="302" from-port="1" to-layer="303" to-port="0" />
		<edge from-layer="303" from-port="1" to-layer="304" to-port="0" />
		<edge from-layer="304" from-port="1" to-layer="305" to-port="0" />
		<edge from-layer="305" from-port="1" to-layer="306" to-port="0" />
		<edge from-layer="306" from-port="1" to-layer="307" to-port="6" />
		<edge from-layer="306" from-port="1" to-layer="313" to-port="6" />
		<edge from-layer="306" from-port="1" to-layer="319" to-port="6" />
		<edge from-layer="306" from-port="1" to-layer="325" to-port="6" />
		<edge from-layer="306" from-port="1" to-layer="331" to-port="6" />
		<edge from-layer="306" from-port="1" to-layer="337" to-port="6" />
		<edge from-layer="306" from-port="1" to-layer="343" to-port="6" />
		<edge from-layer="306" from-port="1" to-layer="349" to-port="6" />
		<edge from-layer="306" from-port="1" to-layer="355" to-port="6" />
		<edge from-layer="306" from-port="1" to-layer="361" to-port="6" />
		<edge from-layer="306" from-port="1" to-layer="367" to-port="6" />
		<edge from-layer="307" from-port="7" to-layer="308" to-port="0" />
		<edge from-layer="308" from-port="1" to-layer="309" to-port="0" />
		<edge from-layer="309" from-port="1" to-layer="310" to-port="0" />
		<edge from-layer="310" from-port="1" to-layer="311" to-port="0" />
		<edge from-layer="311" from-port="1" to-layer="312" to-port="0" />
		<edge from-layer="312" from-port="1" to-layer="313" to-port="7" />
		<edge from-layer="312" from-port="1" to-layer="319" to-port="7" />
		<edge from-layer="312" from-port="1" to-layer="325" to-port="7" />
		<edge from-layer="312" from-port="1" to-layer="331" to-port="7" />
		<edge from-layer="312" from-port="1" to-layer="337" to-port="7" />
		<edge from-layer="312" from-port="1" to-layer="343" to-port="7" />
		<edge from-layer="312" from-port="1" to-layer="349" to-port="7" />
		<edge from-layer="312" from-port="1" to-layer="355" to-port="7" />
		<edge from-layer="312" from-port="1" to-layer="361" to-port="7" />
		<edge from-layer="312" from-port="1" to-layer="367" to-port="7" />
		<edge from-layer="313" from-port="8" to-layer="314" to-port="0" />
		<edge from-layer="314" from-port="1" to-layer="315" to-port="0" />
		<edge from-layer="315" from-port="1" to-layer="316" to-port="0" />
		<edge from-layer="316" from-port="1" to-layer="317" to-port="0" />
		<edge from-layer="317" from-port="1" to-layer="318" to-port="0" />
		<edge from-layer="318" from-port="1" to-layer="319" to-port="8" />
		<edge from-layer="318" from-port="1" to-layer="325" to-port="8" />
		<edge from-layer="318" from-port="1" to-layer="331" to-port="8" />
		<edge from-layer="318" from-port="1" to-layer="337" to-port="8" />
		<edge from-layer="318" from-port="1" to-layer="343" to-port="8" />
		<edge from-layer="318" from-port="1" to-layer="349" to-port="8" />
		<edge from-layer="318" from-port="1" to-layer="355" to-port="8" />
		<edge from-layer="318" from-port="1" to-layer="361" to-port="8" />
		<edge from-layer="318" from-port="1" to-layer="367" to-port="8" />
		<edge from-layer="319" from-port="9" to-layer="320" to-port="0" />
		<edge from-layer="320" from-port="1" to-layer="321" to-port="0" />
		<edge from-layer="321" from-port="1" to-layer="322" to-port="0" />
		<edge from-layer="322" from-port="1" to-layer="323" to-port="0" />
		<edge from-layer="323" from-port="1" to-layer="324" to-port="0" />
		<edge from-layer="324" from-port="1" to-layer="325" to-port="9" />
		<edge from-layer="324" from-port="1" to-layer="331" to-port="9" />
		<edge from-layer="324" from-port="1" to-layer="337" to-port="9" />
		<edge from-layer="324" from-port="1" to-layer="343" to-port="9" />
		<edge from-layer="324" from-port="1" to-layer="349" to-port="9" />
		<edge from-layer="324" from-port="1" to-layer="355" to-port="9" />
		<edge from-layer="324" from-port="1" to-layer="361" to-port="9" />
		<edge from-layer="324" from-port="1" to-layer="367" to-port="9" />
		<edge from-layer="325" from-port="10" to-layer="326" to-port="0" />
		<edge from-layer="326" from-port="1" to-layer="327" to-port="0" />
		<edge from-layer="327" from-port="1" to-layer="328" to-port="0" />
		<edge from-layer="328" from-port="1" to-layer="329" to-port="0" />
		<edge from-layer="329" from-port="1" to-layer="330" to-port="0" />
		<edge from-layer="330" from-port="1" to-layer="331" to-port="10" />
		<edge from-layer="330" from-port="1" to-layer="337" to-port="10" />
		<edge from-layer="330" from-port="1" to-layer="343" to-port="10" />
		<edge from-layer="330" from-port="1" to-layer="349" to-port="10" />
		<edge from-layer="330" from-port="1" to-layer="355" to-port="10" />
		<edge from-layer="330" from-port="1" to-layer="361" to-port="10" />
		<edge from-layer="330" from-port="1" to-layer="367" to-port="10" />
		<edge from-layer="331" from-port="11" to-layer="332" to-port="0" />
		<edge from-layer="332" from-port="1" to-layer="333" to-port="0" />
		<edge from-layer="333" from-port="1" to-layer="334" to-port="0" />
		<edge from-layer="334" from-port="1" to-layer="335" to-port="0" />
		<edge from-layer="335" from-port="1" to-layer="336" to-port="0" />
		<edge from-layer="336" from-port="1" to-layer="337" to-port="11" />
		<edge from-layer="336" from-port="1" to-layer="343" to-port="11" />
		<edge from-layer="336" from-port="1" to-layer="349" to-port="11" />
		<edge from-layer="336" from-port="1" to-layer="355" to-port="11" />
		<edge from-layer="336" from-port="1" to-layer="361" to-port="11" />
		<edge from-layer="336" from-port="1" to-layer="367" to-port="11" />
		<edge from-layer="337" from-port="12" to-layer="338" to-port="0" />
		<edge from-layer="338" from-port="1" to-layer="339" to-port="0" />
		<edge from-layer="339" from-port="1" to-layer="340" to-port="0" />
		<edge from-layer="340" from-port="1" to-layer="341" to-port="0" />
		<edge from-layer="341" from-port="1" to-layer="342" to-port="0" />
		<edge from-layer="342" from-port="1" to-layer="343" to-port="12" />
		<edge from-layer="342" from-port="1" to-layer="349" to-port="12" />
		<edge from-layer="342" from-port="1" to-layer="355" to-port="12" />
		<edge from-layer="342" from-port="1" to-layer="361" to-port="12" />
		<edge from-layer="342" from-port="1" to-layer="367" to-port="12" />
		<edge from-layer="343" from-port="13" to-layer="344" to-port="0" />
		<edge from-layer="344" from-port="1" to-layer="345" to-port="0" />
		<edge from-layer="345" from-port="1" to-layer="346" to-port="0" />
		<edge from-layer="346" from-port="1" to-layer="347" to-port="0" />
		<edge from-layer="347" from-port="1" to-layer="348" to-port="0" />
		<edge from-layer="348" from-port="1" to-layer="349" to-port="13" />
		<edge from-layer="348" from-port="1" to-layer="355" to-port="13" />
		<edge from-layer="348" from-port="1" to-layer="361" to-port="13" />
		<edge from-layer="348" from-port="1" to-layer="367" to-port="13" />
		<edge from-layer="349" from-port="14" to-layer="350" to-port="0" />
		<edge from-layer="350" from-port="1" to-layer="351" to-port="0" />
		<edge from-layer="351" from-port="1" to-layer="352" to-port="0" />
		<edge from-layer="352" from-port="1" to-layer="353" to-port="0" />
		<edge from-layer="353" from-port="1" to-layer="354" to-port="0" />
		<edge from-layer="354" from-port="1" to-layer="355" to-port="14" />
		<edge from-layer="354" from-port="1" to-layer="361" to-port="14" />
		<edge from-layer="354" from-port="1" to-layer="367" to-port="14" />
		<edge from-layer="355" from-port="15" to-layer="356" to-port="0" />
		<edge from-layer="356" from-port="1" to-layer="357" to-port="0" />
		<edge from-layer="357" from-port="1" to-layer="358" to-port="0" />
		<edge from-layer="358" from-port="1" to-layer="359" to-port="0" />
		<edge from-layer="359" from-port="1" to-layer="360" to-port="0" />
		<edge from-layer="360" from-port="1" to-layer="361" to-port="15" />
		<edge from-layer="360" from-port="1" to-layer="367" to-port="15" />
		<edge from-layer="361" from-port="16" to-layer="362" to-port="0" />
		<edge from-layer="362" from-port="1" to-layer="363" to-port="0" />
		<edge from-layer="363" from-port="1" to-layer="364" to-port="0" />
		<edge from-layer="364" from-port="1" to-layer="365" to-port="0" />
		<edge from-layer="365" from-port="1" to-layer="366" to-port="0" />
		<edge from-layer="366" from-port="1" to-layer="367" to-port="16" />
		<edge from-layer="367" from-port="17" to-layer="368" to-port="0" />
		<edge from-layer="368" from-port="1" to-layer="369" to-port="0" />
		<edge from-layer="369" from-port="1" to-layer="370" to-port="0" />
		<edge from-layer="370" from-port="1" to-layer="372" to-port="0" />
		<edge from-layer="371" from-port="0" to-layer="372" to-port="1" />
		<edge from-layer="372" from-port="2" to-layer="373" to-port="0" />
		<edge from-layer="373" from-port="1" to-layer="374" to-port="0" />
	</edges>
	<statistics>
		<layer>
			<name>AveragePool_141</name>
			<min>… 0.000000</min>
			<max>… 0.000000</max>
		</layer>
		<layer>
			<name>AveragePool_315</name>
			<min>… 0.000000</min>
			<max>… 0.000000</max>
		</layer>
		<layer>
			<name>AveragePool_51</name>
			<min>… 0.000000</min>
			<max>… 0.000000</max>
		</layer>
		<layer>
			<name>Concat_101</name>
			<min>… 0.000000</min>
			<max>… 0.000000</max>
		</layer>
		<layer>
			<name>Concat_108</name>
			<min>… 0.000000</min>
			<max>… 0.000000</max>
		</layer>
		<layer>
			<name>Concat_11</name>
			<min>… 0.000000</min>
			<max>… 0.000000</max>
		</layer>
		<layer>
			<name>Concat_115</name>
			<min>… 0.000000</min>
			<max>… 0.000000</max>
		</layer>
		<layer>
			<name>Concat_122</name>
			<min>… 0.000000</min>
			<max>… 0.000000</max>
		</layer>
		<layer>
			<name>Concat_129</name>
			<min>… 0.000000</min>
			<max>… 0.000000</max>
		</layer>
		<layer>
			<name>Concat_136</name>
			<min>… 0.000000</min>
			<max>… 0.000000</max>
		</layer>
		<layer>
			<name>Concat_142</name>
			<min>… 0.000000</min>
			<max>… 0.000000</max>
		</layer>
		<layer>
			<name>Concat_149</name>
			<min>… 0.000000</min>
			<max>… 0.000000</max>
		</layer>
		<layer>
			<name>Concat_156</name>
			<min>… 0.000000</min>
			<max>… 0.000000</max>
		</layer>
		<layer>
			<name>Concat_163</name>
			<min>… 0.000000</min>
			<max>… 0.000000</max>
		</layer>
		<layer>
			<name>Concat_170</name>
			<min>… 0.000000</min>
			<max>… 0.000000</max>
		</layer>
		<layer>
			<name>Concat_177</name>
			<min>… 0.000000</min>
			<max>… 0.000000</max>
		</layer>
		<layer>
			<name>Concat_18</name>
			<min>… 0.000000</min>
			<max>… 0.000000</max>
		</layer>
		<layer>
			<name>Concat_184</name>
			<min>… 0.000000</min>
			<max>… 0.000000</max>
		</layer>
		<layer>
			<name>Concat_191</name>
			<min>… 0.000000</min>
			<max>… 0.000000</max>
		</layer>
		<layer>
			<name>Concat_198</name>
			<min>… 0.000000</min>
			<max>… 0.000000</max>
		</layer>
		<layer>
			<name>Concat_205</name>
			<min>… 0.000000</min>
			<max>… 0.000000</max>
		</layer>
		<layer>
			<name>Concat_212</name>
			<min>… 0.000000</min>
			<max>… 0.000000</max>
		</layer>
		<layer>
			<name>Concat_219</name>
			<min>… 0.000000</min>
			<max>… 0.000000</max>
		</layer>
		<layer>
			<name>Concat_226</name>
			<min>… 0.000000</min>
			<max>… 0.000000</max>
		</layer>
		<layer>
			<name>Concat_233</name>
			<min>… 0.000000</min>
			<max>… 0.000000</max>
		</layer>
		<layer>
			<name>Concat_240</name>
			<min>… 0.000000</min>
			<max>… 0.000000</max>
		</layer>
		<layer>
			<name>Concat_247</name>
			<min>… 0.000000</min>
			<max>… 0.000000</max>
		</layer>
		<layer>
			<name>Concat_25</name>
			<min>… 0.000000</min>
			<max>… 0.000000</max>
		</layer>
		<layer>
			<name>Concat_254</name>
			<min>… 0.000000</min>
			<max>… 0.000000</max>
		</layer>
		<layer>
			<name>Concat_261</name>
			<min>… 0.000000</min>
			<max>… 0.000000</max>
		</layer>
		<layer>
			<name>Concat_268</name>
			<min>… 0.000000</min>
			<max>… 0.000000</max>
		</layer>
		<layer>
			<name>Concat_275</name>
			<min>… 0.000000</min>
			<max>… 0.000000</max>
		</layer>
		<layer>
			<name>Concat_282</name>
			<min>… 0.000000</min>
			<max>… 0.000000</max>
		</layer>
		<layer>
			<name>Concat_289</name>
			<min>… 0.000000</min>
			<max>… 0.000000</max>
		</layer>
		<layer>
			<name>Concat_296</name>
			<min>… 0.000000</min>
			<max>… 0.000000</max>
		</layer>
		<layer>
			<name>Concat_303</name>
			<min>… 0.000000</min>
			<max>… 0.000000</max>
		</layer>
		<layer>
			<name>Concat_310</name>
			<min>… 0.000000</min>
			<max>… 0.000000</max>
		</layer>
		<layer>
			<name>Concat_316</name>
			<min>… 0.000000</min>
			<max>… 0.000000</max>
		</layer>
		<layer>
			<name>Concat_32</name>
			<min>… 0.000000</min>
			<max>… 0.000000</max>
		</layer>
		<layer>
			<name>Concat_323</name>
			<min>… 0.000000</min>
			<max>… 0.000000</max>
		</layer>
		<layer>
			<name>Concat_330</name>
			<min>… 0.000000</min>
			<max>… 0.000000</max>
		</layer>
		<layer>
			<name>Concat_337</name>
			<min>… 0.000000</min>
			<max>… 0.000000</max>
		</layer>
		<layer>
			<name>Concat_344</name>
			<min>… 0.000000</min>
			<max>… 0.000000</max>
		</layer>
		<layer>
			<name>Concat_351</name>
			<min>… 0.000000</min>
			<max>… 0.000000</max>
		</layer>
		<layer>
			<name>Concat_358</name>
			<min>… 0.000000</min>
			<max>… 0.000000</max>
		</layer>
		<layer>
			<name>Concat_365</name>
			<min>… 0.000000</min>
			<max>… 0.000000</max>
		</layer>
		<layer>
			<name>Concat_372</name>
			<min>… 0.000000</min>
			<max>… 0.000000</max>
		</layer>
		<layer>
			<name>Concat_379</name>
			<min>… 0.000000</min>
			<max>… 0.000000</max>
		</layer>
		<layer>
			<name>Concat_386</name>
			<min>… 0.000000</min>
			<max>… 0.000000</max>
		</layer>
		<layer>
			<name>Concat_39</name>
			<min>… 0.000000</min>
			<max>… 0.000000</max>
		</layer>
		<layer>
			<name>Concat_393</name>
			<min>… 0.000000</min>
			<max>… 0.000000</max>
		</layer>
		<layer>
			<name>Concat_4</name>
			<min>… 0.000000</min>
			<max>… 0.000000</max>
		</layer>
		<layer>
			<name>Concat_400</name>
			<min>… 0.000000</min>
			<max>… 0.000000</max>
		</layer>
		<layer>
			<name>Concat_407</name>
			<min>… 0.000000</min>
			<max>… 0.000000</max>
		</layer>
		<layer>
			<name>Concat_414</name>
			<min>… 0.000000</min>
			<max>… 0.000000</max>
		</layer>
		<layer>
			<name>Concat_421</name>
			<min>… 0.000000</min>
			<max>… 0.000000</max>
		</layer>
		<layer>
			<name>Concat_428</name>
			<min>… 0.000000</min>
			<max>… 0.000000</max>
		</layer>
		<layer>
			<name>Concat_46</name>
			<min>… 0.000000</min>
			<max>… 0.000000</max>
		</layer>
		<layer>
			<name>Concat_52</name>
			<min>… 0.000000</min>
			<max>… 0.000000</max>
		</layer>
		<layer>
			<name>Concat_59</name>
			<min>… 0.000000</min>
			<max>… 0.000000</max>
		</layer>
		<layer>
			<name>Concat_66</name>
			<min>… 0.000000</min>
			<max>… 0.000000</max>
		</layer>
		<layer>
			<name>Concat_73</name>
			<min>… 0.000000</min>
			<max>… 0.000000</max>
		</layer>
		<layer>
			<name>Concat_80</name>
			<min>… 0.000000</min>
			<max>… 0.000000</max>
		</layer>
		<layer>
			<name>Concat_87</name>
			<min>… 0.000000</min>
			<max>… 0.000000</max>
		</layer>
		<layer>
			<name>Concat_94</name>
			<min>… 0.000000</min>
			<max>… 0.000000</max>
		</layer>
		<layer>
			<name>Conv_0</name>
			<min>… 0.000000</min>
			<max>… 0.000000</max>
		</layer>
		<layer>
			<name>Conv_10</name>
			<min>… 0.000000</min>
			<max>… 0.000000</max>
		</layer>
		<layer>
			<name>Conv_100</name>
			<min>… 0.000000</min>
			<max>… 0.000000</max>
		</layer>
		<layer>
			<name>Conv_104</name>
			<min>… 0.000000</min>
			<max>… 0.000000</max>
		</layer>
		<layer>
			<name>Conv_107</name>
			<min>… 0.000000</min>
			<max>… 0.000000</max>
		</layer>
		<layer>
			<name>Conv_111</name>
			<min>… 0.000000</min>
			<max>… 0.000000</max>
		</layer>
		<layer>
			<name>Conv_114</name>
			<min>… 0.000000</min>
			<max>… 0.000000</max>
		</layer>
		<layer>
			<name>Conv_118</name>
			<min>… 0.000000</min>
			<max>… 0.000000</max>
		</layer>
		<layer>
			<name>Conv_121</name>
			<min>… 0.000000</min>
			<max>… 0.000000</max>
		</layer>
		<layer>
			<name>Conv_125</name>
			<min>… 0.000000</min>
			<max>… 0.000000</max>
		</layer>
		<layer>
			<name>Conv_128</name>
			<min>… 0.000000</min>
			<max>… 0.000000</max>
		</layer>
		<layer>
			<name>Conv_132</name>
			<min>… 0.000000</min>
			<max>… 0.000000</max>
		</layer>
		<layer>
			<name>Conv_135</name>
			<min>… 0.000000</min>
			<max>… 0.000000</max>
		</layer>
		<layer>
			<name>Conv_139</name>
			<min>… 0.000000</min>
			<max>… 0.000000</max>
		</layer>
		<layer>
			<name>Conv_14</name>
			<min>… 0.000000</min>
			<max>… 0.000000</max>
		</layer>
		<layer>
			<name>Conv_145</name>
			<min>… 0.000000</min>
			<max>… 0.000000</max>
		</layer>
		<layer>
			<name>Conv_148</name>
			<min>… 0.000000</min>
			<max>… 0.000000</max>
		</layer>
		<layer>
			<name>Conv_152</name>
			<min>… 0.000000</min>
			<max>… 0.000000</max>
		</layer>
		<layer>
			<name>Conv_155</name>
			<min>… 0.000000</min>
			<max>… 0.000000</max>
		</layer>
		<layer>
			<name>Conv_159</name>
			<min>… 0.000000</min>
			<max>… 0.000000</max>
		</layer>
		<layer>
			<name>Conv_162</name>
			<min>… 0.000000</min>
			<max>… 0.000000</max>
		</layer>
		<layer>
			<name>Conv_166</name>
			<min>… 0.000000</min>
			<max>… 0.000000</max>
		</layer>
		<layer>
			<name>Conv_169</name>
			<min>… 0.000000</min>
			<max>… 0.000000</max>
		</layer>
		<layer>
			<name>Conv_17</name>
			<min>… 0.000000</min>
			<max>… 0.000000</max>
		</layer>
		<layer>
			<name>Conv_173</name>
			<min>… 0.000000</min>
			<max>… 0.000000</max>
		</layer>
		<layer>
			<name>Conv_176</name>
			<min>… 0.000000</min>
			<max>… 0.000000</max>
		</layer>
		<layer>
			<name>Conv_180</name>
			<min>… 0.000000</min>
			<max>… 0.000000</max>
		</layer>
		<layer>
			<name>Conv_183</name>
			<min>… 0.000000</min>
			<max>… 0.000000</max>
		</layer>
		<layer>
			<name>Conv_187</name>
			<min>… 0.000000</min>
			<max>… 0.000000</max>
		</layer>
		<layer>
			<name>Conv_190</name>
			<min>… 0.000000</min>
			<max>… 0.000000</max>
		</layer>
		<layer>
			<name>Conv_194</name>
			<min>… 0.000000</min>
			<max>… 0.000000</max>
		</layer>
		<layer>
			<name>Conv_197</name>
			<min>… 0.000000</min>
			<max>… 0.000000</max>
		</layer>
		<layer>
			<name>Conv_201</name>
			<min>… 0.000000</min>
			<max>… 0.000000</max>
		</layer>
		<layer>
			<name>Conv_204</name>
			<min>… 0.000000</min>
			<max>… 0.000000</max>
		</layer>
		<layer>
			<name>Conv_208</name>
			<min>… 0.000000</min>
			<max>… 0.000000</max>
		</layer>
		<layer>
			<name>Conv_21</name>
			<min>… 0.000000</min>
			<max>… 0.000000</max>
		</layer>
		<layer>
			<name>Conv_211</name>
			<min>… 0.000000</min>
			<max>… 0.000000</max>
		</layer>
		<layer>
			<name>Conv_215</name>
			<min>… 0.000000</min>
			<max>… 0.000000</max>
		</layer>
		<layer>
			<name>Conv_218</name>
			<min>… 0.000000</min>
			<max>… 0.000000</max>
		</layer>
		<layer>
			<name>Conv_222</name>
			<min>… 0.000000</min>
			<max>… 0.000000</max>
		</layer>
		<layer>
			<name>Conv_225</name>
			<min>… 0.000000</min>
			<max>… 0.000000</max>
		</layer>
		<layer>
			<name>Conv_229</name>
			<min>… 0.000000</min>
			<max>… 0.000000</max>
		</layer>
		<layer>
			<name>Conv_232</name>
			<min>… 0.000000</min>
			<max>… 0.000000</max>
		</layer>
		<layer>
			<name>Conv_236</name>
			<min>… 0.000000</min>
			<max>… 0.000000</max>
		</layer>
		<layer>
			<name>Conv_239</name>
			<min>… 0.000000</min>
			<max>… 0.000000</max>
		</layer>
		<layer>
			<name>Conv_24</name>
			<min>… 0.000000</min>
			<max>… 0.000000</max>
		</layer>
		<layer>
			<name>Conv_243</name>
			<min>… 0.000000</min>
			<max>… 0.000000</max>
		</layer>
		<layer>
			<name>Conv_246</name>
			<min>… 0.000000</min>
			<max>… 0.000000</max>
		</layer>
		<layer>
			<name>Conv_250</name>
			<min>… 0.000000</min>
			<max>… 0.000000</max>
		</layer>
		<layer>
			<name>Conv_253</name>
			<min>… 0.000000</min>
			<max>… 0.000000</max>
		</layer>
		<layer>
			<name>Conv_257</name>
			<min>… 0.000000</min>
			<max>… 0.000000</max>
		</layer>
		<layer>
			<name>Conv_260</name>
			<min>… 0.000000</min>
			<max>… 0.000000</max>
		</layer>
		<layer>
			<name>Conv_264</name>
			<min>… 0.000000</min>
			<max>… 0.000000</max>
		</layer>
		<layer>
			<name>Conv_267</name>
			<min>… 0.000000</min>
			<max>… 0.000000</max>
		</layer>
		<layer>
			<name>Conv_271</name>
			<min>… 0.000000</min>
			<max>… 0.000000</max>
		</layer>
		<layer>
			<name>Conv_274</name>
			<min>… 0.000000</min>
			<max>… 0.000000</max>
		</layer>
		<layer>
			<name>Conv_278</name>
			<min>… 0.000000</min>
			<max>… 0.000000</max>
		</layer>
		<layer>
			<name>Conv_28</name>
			<min>… 0.000000</min>
			<max>… 0.000000</max>
		</layer>
		<layer>
			<name>Conv_281</name>
			<min>… 0.000000</min>
			<max>… 0.000000</max>
		</layer>
		<layer>
			<name>Conv_285</name>
			<min>… 0.000000</min>
			<max>… 0.000000</max>
		</layer>
		<layer>
			<name>Conv_288</name>
			<min>… 0.000000</min>
			<max>… 0.000000</max>
		</layer>
		<layer>
			<name>Conv_292</name>
			<min>… 0.000000</min>
			<max>… 0.000000</max>
		</layer>
		<layer>
			<name>Conv_295</name>
			<min>… 0.000000</min>
			<max>… 0.000000</max>
		</layer>
		<layer>
			<name>Conv_299</name>
			<min>… 0.000000</min>
			<max>… 0.000000</max>
		</layer>
		<layer>
			<name>Conv_302</name>
			<min>… 0.000000</min>
			<max>… 0.000000</max>
		</layer>
		<layer>
			<name>Conv_306</name>
			<min>… 0.000000</min>
			<max>… 0.000000</max>
		</layer>
		<layer>
			<name>Conv_309</name>
			<min>… 0.000000</min>
			<max>… 0.000000</max>
		</layer>
		<layer>
			<name>Conv_31</name>
			<min>… 0.000000</min>
			<max>… 0.000000</max>
		</layer>
		<layer>
			<name>Conv_313</name>
			<min>… 0.000000</min>
			<max>… 0.000000</max>
		</layer>
		<layer>
			<name>Conv_319</name>
			<min>… 0.000000</min>
			<max>… 0.000000</max>
		</layer>
		<layer>
			<name>Conv_322</name>
			<min>… 0.000000</min>
			<max>… 0.000000</max>
		</layer>
		<layer>
			<name>Conv_326</name>
			<min>… 0.000000</min>
			<max>… 0.000000</max>
		</layer>
		<layer>
			<name>Conv_329</name>
			<min>… 0.000000</min>
			<max>… 0.000000</max>
		</layer>
		<layer>
			<name>Conv_333</name>
			<min>… 0.000000</min>
			<max>… 0.000000</max>
		</layer>
		<layer>
			<name>Conv_336</name>
			<min>… 0.000000</min>
			<max>… 0.000000</max>
		</layer>
		<layer>
			<name>Conv_340</name>
			<min>… 0.000000</min>
			<max>… 0.000000</max>
		</layer>
		<layer>
			<name>Conv_343</name>
			<min>… 0.000000</min>
			<max>… 0.000000</max>
		</layer>
		<layer>
			<name>Conv_347</name>
			<min>… 0.000000</min>
			<max>… 0.000000</max>
		</layer>
		<layer>
			<name>Conv_35</name>
			<min>… 0.000000</min>
			<max>… 0.000000</max>
		</layer>
		<layer>
			<name>Conv_350</name>
			<min>… 0.000000</min>
			<max>… 0.000000</max>
		</layer>
		<layer>
			<name>Conv_354</name>
			<min>… 0.000000</min>
			<max>… 0.000000</max>
		</layer>
		<layer>
			<name>Conv_357</name>
			<min>… 0.000000</min>
			<max>… 0.000000</max>
		</layer>
		<layer>
			<name>Conv_361</name>
			<min>… 0.000000</min>
			<max>… 0.000000</max>
		</layer>
		<layer>
			<name>Conv_364</name>
			<min>… 0.000000</min>
			<max>… 0.000000</max>
		</layer>
		<layer>
			<name>Conv_368</name>
			<min>… 0.000000</min>
			<max>… 0.000000</max>
		</layer>
		<layer>
			<name>Conv_371</name>
			<min>… 0.000000</min>
			<max>… 0.000000</max>
		</layer>
		<layer>
			<name>Conv_375</name>
			<min>… 0.000000</min>
			<max>… 0.000000</max>
		</layer>
		<layer>
			<name>Conv_378</name>
			<min>… 0.000000</min>
			<max>… 0.000000</max>
		</layer>
		<layer>
			<name>Conv_38</name>
			<min>… 0.000000</min>
			<max>… 0.000000</max>
		</layer>
		<layer>
			<name>Conv_382</name>
			<min>… 0.000000</min>
			<max>… 0.000000</max>
		</layer>
		<layer>
			<name>Conv_385</name>
			<min>… 0.000000</min>
			<max>… 0.000000</max>
		</layer>
		<layer>
			<name>Conv_389</name>
			<min>… 0.000000</min>
			<max>… 0.000000</max>
		</layer>
		<layer>
			<name>Conv_392</name>
			<min>… 0.000000</min>
			<max>… 0.000000</max>
		</layer>
		<layer>
			<name>Conv_396</name>
			<min>… 0.000000</min>
			<max>… 0.000000</max>
		</layer>
		<layer>
			<name>Conv_399</name>
			<min>… 0.000000</min>
			<max>… 0.000000</max>
		</layer>
		<layer>
			<name>Conv_403</name>
			<min>… 0.000000</min>
			<max>… 0.000000</max>
		</layer>
		<layer>
			<name>Conv_406</name>
			<min>… 0.000000</min>
			<max>… 0.000000</max>
		</layer>
		<layer>
			<name>Conv_410</name>
			<min>… 0.000000</min>
			<max>… 0.000000</max>
		</layer>
		<layer>
			<name>Conv_413</name>
			<min>… 0.000000</min>
			<max>… 0.000000</max>
		</layer>
		<layer>
			<name>Conv_417</name>
			<min>… 0.000000</min>
			<max>… 0.000000</max>
		</layer>
		<layer>
			<name>Conv_42</name>
			<min>… 0.000000</min>
			<max>… 0.000000</max>
		</layer>
		<layer>
			<name>Conv_420</name>
			<min>… 0.000000</min>
			<max>… 0.000000</max>
		</layer>
		<layer>
			<name>Conv_424</name>
			<min>… 0.000000</min>
			<max>… 0.000000</max>
		</layer>
		<layer>
			<name>Conv_427</name>
			<min>… 0.000000</min>
			<max>… 0.000000</max>
		</layer>
		<layer>
			<name>Conv_45</name>
			<min>… 0.000000</min>
			<max>… 0.000000</max>
		</layer>
		<layer>
			<name>Conv_49</name>
			<min>… 0.000000</min>
			<max>… 0.000000</max>
		</layer>
		<layer>
			<name>Conv_55</name>
			<min>… 0.000000</min>
			<max>… 0.000000</max>
		</layer>
		<layer>
			<name>Conv_58</name>
			<min>… 0.000000</min>
			<max>… 0.000000</max>
		</layer>
		<layer>
			<name>Conv_62</name>
			<min>… 0.000000</min>
			<max>… 0.000000</max>
		</layer>
		<layer>
			<name>Conv_65</name>
			<min>… 0.000000</min>
			<max>… 0.000000</max>
		</layer>
		<layer>
			<name>Conv_69</name>
			<min>… 0.000000</min>
			<max>… 0.000000</max>
		</layer>
		<layer>
			<name>Conv_7</name>
			<min>… 0.000000</min>
			<max>… 0.000000</max>
		</layer>
		<layer>
			<name>Conv_72</name>
			<min>… 0.000000</min>
			<max>… 0.000000</max>
		</layer>
		<layer>
			<name>Conv_76</name>
			<min>… 0.000000</min>
			<max>… 0.000000</max>
		</layer>
		<layer>
			<name>Conv_79</name>
			<min>… 0.000000</min>
			<max>… 0.000000</max>
		</layer>
		<layer>
			<name>Conv_83</name>
			<min>… 0.000000</min>
			<max>… 0.000000</max>
		</layer>
		<layer>
			<name>Conv_86</name>
			<min>… 0.000000</min>
			<max>… 0.000000</max>
		</layer>
		<layer>
			<name>Conv_90</name>
			<min>… 0.000000</min>
			<max>… 0.000000</max>
		</layer>
		<layer>
			<name>Conv_93</name>
			<min>… 0.000000</min>
			<max>… 0.000000</max>
		</layer>
		<layer>
			<name>Conv_97</name>
			<min>… 0.000000</min>
			<max>… 0.000000</max>
		</layer>
		<layer>
			<name>Flatten_432/Dims</name>
			<min>… 0.000000</min>
			<max>… 0.000000</max>
		</layer>
		<layer>
			<name>GlobalAveragePool_431</name>
			<min>… 0.000000</min>
			<max>… 0.000000</max>
		</layer>
		<layer>
			<name>MaxPool_3</name>
			<min>… 0.000000</min>
			<max>… 0.000000</max>
		</layer>
		<layer>
			<name>Mul1_13625/Fused_Mul_/FusedScaleShift_</name>
			<min>… 0.000000</min>
			<max>… 0.000000</max>
		</layer>
		<layer>
			<name>Mul1_13649/Fused_Mul_/FusedScaleShift_</name>
			<min>… 0.000000</min>
			<max>… 0.000000</max>
		</layer>
		<layer>
			<name>Mul1_13673/Fused_Mul_/FusedScaleShift_</name>
			<min>… 0.000000</min>
			<max>… 0.000000</max>
		</layer>
		<layer>
			<name>Mul1_13697/Fused_Mul_/FusedScaleShift_</name>
			<min>… 0.000000</min>
			<max>… 0.000000</max>
		</layer>
		<layer>
			<name>Mul1_13721/Fused_Mul_/FusedScaleShift_</name>
			<min>… 0.000000</min>
			<max>… 0.000000</max>
		</layer>
		<layer>
			<name>Mul1_13745/Fused_Mul_/FusedScaleShift_</name>
			<min>… 0.000000</min>
			<max>… 0.000000</max>
		</layer>
		<layer>
			<name>Mul1_13769/Fused_Mul_/FusedScaleShift_</name>
			<min>… 0.000000</min>
			<max>… 0.000000</max>
		</layer>
		<layer>
			<name>Mul1_13781/Fused_Mul_/FusedScaleShift_</name>
			<min>… 0.000000</min>
			<max>… 0.000000</max>
		</layer>
		<layer>
			<name>Mul1_13805/Fused_Mul_/FusedScaleShift_</name>
			<min>… 0.000000</min>
			<max>… 0.000000</max>
		</layer>
		<layer>
			<name>Mul1_13829/Fused_Mul_/FusedScaleShift_</name>
			<min>… 0.000000</min>
			<max>… 0.000000</max>
		</layer>
		<layer>
			<name>Mul1_13853/Fused_Mul_/FusedScaleShift_</name>
			<min>… 0.000000</min>
			<max>… 0.000000</max>
		</layer>
		<layer>
			<name>Mul1_13877/Fused_Mul_/FusedScaleShift_</name>
			<min>… 0.000000</min>
			<max>… 0.000000</max>
		</layer>
		<layer>
			<name>Mul1_13901/Fused_Mul_/FusedScaleShift_</name>
			<min>… 0.000000</min>
			<max>… 0.000000</max>
		</layer>
		<layer>
			<name>Mul1_13925/Fused_Mul_/FusedScaleShift_</name>
			<min>… 0.000000</min>
			<max>… 0.000000</max>
		</layer>
		<layer>
			<name>Mul1_13949/Fused_Mul_/FusedScaleShift_</name>
			<min>… 0.000000</min>
			<max>… 0.000000</max>
		</layer>
		<layer>
			<name>Mul1_13973/Fused_Mul_/FusedScaleShift_</name>
			<min>… 0.000000</min>
			<max>… 0.000000</max>
		</layer>
		<layer>
			<name>Mul1_13997/Fused_Mul_/FusedScaleShift_</name>
			<min>… 0.000000</min>
			<max>… 0.000000</max>
		</layer>
		<layer>
			<name>Mul1_14021/Fused_Mul_/FusedScaleShift_</name>
			<min>… 0.000000</min>
			<max>… 0.000000</max>
		</layer>
		<layer>
			<name>Mul1_14045/Fused_Mul_/FusedScaleShift_</name>
			<min>… 0.000000</min>
			<max>… 0.000000</max>
		</layer>
		<layer>
			<name>Mul1_14069/Fused_Mul_/FusedScaleShift_</name>
			<min>… 0.000000</min>
			<max>… 0.000000</max>
		</layer>
		<layer>
			<name>Mul1_14081/Fused_Mul_/FusedScaleShift_</name>
			<min>… 0.000000</min>
			<max>… 0.000000</max>
		</layer>
		<layer>
			<name>Mul1_14105/Fused_Mul_/FusedScaleShift_</name>
			<min>… 0.000000</min>
			<max>… 0.000000</max>
		</layer>
		<layer>
			<name>Mul1_14129/Fused_Mul_/FusedScaleShift_</name>
			<min>… 0.000000</min>
			<max>… 0.000000</max>
		</layer>
		<layer>
			<name>Mul1_14153/Fused_Mul_/FusedScaleShift_</name>
			<min>… 0.000000</min>
			<max>… 0.000000</max>
		</layer>
		<layer>
			<name>Mul1_14177/Fused_Mul_/FusedScaleShift_</name>
			<min>… 0.000000</min>
			<max>… 0.000000</max>
		</layer>
		<layer>
			<name>Mul1_14201/Fused_Mul_/FusedScaleShift_</name>
			<min>… 0.000000</min>
			<max>… 0.000000</max>
		</layer>
		<layer>
			<name>Mul1_14225/Fused_Mul_/FusedScaleShift_</name>
			<min>… 0.000000</min>
			<max>… 0.000000</max>
		</layer>
		<layer>
			<name>Mul1_14249/Fused_Mul_/FusedScaleShift_</name>
			<min>… 0.000000</min>
			<max>… 0.000000</max>
		</layer>
		<layer>
			<name>Mul1_14273/Fused_Mul_/FusedScaleShift_</name>
			<min>… 0.000000</min>
			<max>… 0.000000</max>
		</layer>
		<layer>
			<name>Mul1_14297/Fused_Mul_/FusedScaleShift_</name>
			<min>… 0.000000</min>
			<max>… 0.000000</max>
		</layer>
		<layer>
			<name>Mul1_14321/Fused_Mul_/FusedScaleShift_</name>
			<min>… 0.000000</min>
			<max>… 0.000000</max>
		</layer>
		<layer>
			<name>Mul1_14345/Fused_Mul_/FusedScaleShift_</name>
			<min>… 0.000000</min>
			<max>… 0.000000</max>
		</layer>
		<layer>
			<name>Mul1_14369/Fused_Mul_/FusedScaleShift_</name>
			<min>… 0.000000</min>
			<max>… 0.000000</max>
		</layer>
		<layer>
			<name>Mul1_14393/Fused_Mul_/FusedScaleShift_</name>
			<min>… 0.000000</min>
			<max>… 0.000000</max>
		</layer>
		<layer>
			<name>Mul1_14417/Fused_Mul_/FusedScaleShift_</name>
			<min>… 0.000000</min>
			<max>… 0.000000</max>
		</layer>
		<layer>
			<name>Mul1_14441/Fused_Mul_/FusedScaleShift_</name>
			<min>… 0.000000</min>
			<max>… 0.000000</max>
		</layer>
		<layer>
			<name>Mul1_14465/Fused_Mul_/FusedScaleShift_</name>
			<min>… 0.000000</min>
			<max>… 0.000000</max>
		</layer>
		<layer>
			<name>Mul1_14489/Fused_Mul_/FusedScaleShift_</name>
			<min>… 0.000000</min>
			<max>… 0.000000</max>
		</layer>
		<layer>
			<name>Mul1_14513/Fused_Mul_/FusedScaleShift_</name>
			<min>… 0.000000</min>
			<max>… 0.000000</max>
		</layer>
		<layer>
			<name>Mul1_14537/Fused_Mul_/FusedScaleShift_</name>
			<min>… 0.000000</min>
			<max>… 0.000000</max>
		</layer>
		<layer>
			<name>Mul1_14561/Fused_Mul_/FusedScaleShift_</name>
			<min>… 0.000000</min>
			<max>… 0.000000</max>
		</layer>
		<layer>
			<name>Mul1_14585/Fused_Mul_/FusedScaleShift_</name>
			<min>… 0.000000</min>
			<max>… 0.000000</max>
		</layer>
		<layer>
			<name>Mul1_14609/Fused_Mul_/FusedScaleShift_</name>
			<min>… 0.000000</min>
			<max>… 0.000000</max>
		</layer>
		<layer>
			<name>Mul1_14633/Fused_Mul_/FusedScaleShift_</name>
			<min>… 0.000000</min>
			<max>… 0.000000</max>
		</layer>
		<layer>
			<name>Mul1_14657/Fused_Mul_/FusedScaleShift_</name>
			<min>… 0.000000</min>
			<max>… 0.000000</max>
		</layer>
		<layer>
			<name>Mul1_14669/Fused_Mul_/FusedScaleShift_</name>
			<min>… 0.000000</min>
			<max>… 0.000000</max>
		</layer>
		<layer>
			<name>Mul1_14693/Fused_Mul_/FusedScaleShift_</name>
			<min>… 0.000000</min>
			<max>… 0.000000</max>
		</layer>
		<layer>
			<name>Mul1_14717/Fused_Mul_/FusedScaleShift_</name>
			<min>… 0.000000</min>
			<max>… 0.000000</max>
		</layer>
		<layer>
			<name>Mul1_14741/Fused_Mul_/FusedScaleShift_</name>
			<min>… 0.000000</min>
			<max>… 0.000000</max>
		</layer>
		<layer>
			<name>Mul1_14765/Fused_Mul_/FusedScaleShift_</name>
			<min>… 0.000000</min>
			<max>… 0.000000</max>
		</layer>
		<layer>
			<name>Mul1_14789/Fused_Mul_/FusedScaleShift_</name>
			<min>… 0.000000</min>
			<max>… 0.000000</max>
		</layer>
		<layer>
			<name>Mul1_14813/Fused_Mul_/FusedScaleShift_</name>
			<min>… 0.000000</min>
			<max>… 0.000000</max>
		</layer>
		<layer>
			<name>Mul1_14837/Fused_Mul_/FusedScaleShift_</name>
			<min>… 0.000000</min>
			<max>… 0.000000</max>
		</layer>
		<layer>
			<name>Mul1_14861/Fused_Mul_/FusedScaleShift_</name>
			<min>… 0.000000</min>
			<max>… 0.000000</max>
		</layer>
		<layer>
			<name>Mul1_14885/Fused_Mul_/FusedScaleShift_</name>
			<min>… 0.000000</min>
			<max>… 0.000000</max>
		</layer>
		<layer>
			<name>Mul1_14909/Fused_Mul_/FusedScaleShift_</name>
			<min>… 0.000000</min>
			<max>… 0.000000</max>
		</layer>
		<layer>
			<name>Mul1_14933/Fused_Mul_/FusedScaleShift_</name>
			<min>… 0.000000</min>
			<max>… 0.000000</max>
		</layer>
		<layer>
			<name>Mul1_14957/Fused_Mul_/FusedScaleShift_</name>
			<min>… 0.000000</min>
			<max>… 0.000000</max>
		</layer>
		<layer>
			<name>Mul1_14981/Fused_Mul_/FusedScaleShift_</name>
			<min>… 0.000000</min>
			<max>… 0.000000</max>
		</layer>
		<layer>
			<name>Mul1_15005/Fused_Mul_/FusedScaleShift_</name>
			<min>… 0.000000</min>
			<max>… 0.000000</max>
		</layer>
		<layer>
			<name>Mul1_15029/Fused_Mul_/FusedScaleShift_</name>
			<min>… 0.000000</min>
			<max>… 0.000000</max>
		</layer>
		<layer>
			<name>Mul1_15053/Fused_Mul_/FusedScaleShift_</name>
			<min>… 0.000000</min>
			<max>… 0.000000</max>
		</layer>
		<layer>
			<name>Relu_103</name>
			<min>… 0.000000</min>
			<max>… 0.000000</max>
		</layer>
		<layer>
			<name>Relu_106</name>
			<min>… 0.000000</min>
			<max>… 0.000000</max>
		</layer>
		<layer>
			<name>Relu_110</name>
			<min>… 0.000000</min>
			<max>… 0.000000</max>
		</layer>
		<layer>
			<name>Relu_113</name>
			<min>… 0.000000</min>
			<max>… 0.000000</max>
		</layer>
		<layer>
			<name>Relu_117</name>
			<min>… 0.000000</min>
			<max>… 0.000000</max>
		</layer>
		<layer>
			<name>Relu_120</name>
			<min>… 0.000000</min>
			<max>… 0.000000</max>
		</layer>
		<layer>
			<name>Relu_124</name>
			<min>… 0.000000</min>
			<max>… 0.000000</max>
		</layer>
		<layer>
			<name>Relu_127</name>
			<min>… 0.000000</min>
			<max>… 0.000000</max>
		</layer>
		<layer>
			<name>Relu_13</name>
			<min>… 0.000000</min>
			<max>… 0.000000</max>
		</layer>
		<layer>
			<name>Relu_131</name>
			<min>… 0.000000</min>
			<max>… 0.000000</max>
		</layer>
		<layer>
			<name>Relu_134</name>
			<min>… 0.000000</min>
			<max>… 0.000000</max>
		</layer>
		<layer>
			<name>Relu_138</name>
			<min>… 0.000000</min>
			<max>… 0.000000</max>
		</layer>
		<layer>
			<name>Relu_144</name>
			<min>… 0.000000</min>
			<max>… 0.000000</max>
		</layer>
		<layer>
			<name>Relu_147</name>
			<min>… 0.000000</min>
			<max>… 0.000000</max>
		</layer>
		<layer>
			<name>Relu_151</name>
			<min>… 0.000000</min>
			<max>… 0.000000</max>
		</layer>
		<layer>
			<name>Relu_154</name>
			<min>… 0.000000</min>
			<max>… 0.000000</max>
		</layer>
		<layer>
			<name>Relu_158</name>
			<min>… 0.000000</min>
			<max>… 0.000000</max>
		</layer>
		<layer>
			<name>Relu_16</name>
			<min>… 0.000000</min>
			<max>… 0.000000</max>
		</layer>
		<layer>
			<name>Relu_161</name>
			<min>… 0.000000</min>
			<max>… 0.000000</max>
		</layer>
		<layer>
			<name>Relu_165</name>
			<min>… 0.000000</min>
			<max>… 0.000000</max>
		</layer>
		<layer>
			<name>Relu_168</name>
			<min>… 0.000000</min>
			<max>… 0.000000</max>
		</layer>
		<layer>
			<name>Relu_172</name>
			<min>… 0.000000</min>
			<max>… 0.000000</max>
		</layer>
		<layer>
			<name>Relu_175</name>
			<min>… 0.000000</min>
			<max>… 0.000000</max>
		</layer>
		<layer>
			<name>Relu_179</name>
			<min>… 0.000000</min>
			<max>… 0.000000</max>
		</layer>
		<layer>
			<name>Relu_182</name>
			<min>… 0.000000</min>
			<max>… 0.000000</max>
		</layer>
		<layer>
			<name>Relu_186</name>
			<min>… 0.000000</min>
			<max>… 0.000000</max>
		</layer>
		<layer>
			<name>Relu_189</name>
			<min>… 0.000000</min>
			<max>… 0.000000</max>
		</layer>
		<layer>
			<name>Relu_193</name>
			<min>… 0.000000</min>
			<max>… 0.000000</max>
		</layer>
		<layer>
			<name>Relu_196</name>
			<min>… 0.000000</min>
			<max>… 0.000000</max>
		</layer>
		<layer>
			<name>Relu_2</name>
			<min>… 0.000000</min>
			<max>… 0.000000</max>
		</layer>
		<layer>
			<name>Relu_20</name>
			<min>… 0.000000</min>
			<max>… 0.000000</max>
		</layer>
		<layer>
			<name>Relu_200</name>
			<min>… 0.000000</min>
			<max>… 0.000000</max>
		</layer>
		<layer>
			<name>Relu_203</name>
			<min>… 0.000000</min>
			<max>… 0.000000</max>
		</layer>
		<layer>
			<name>Relu_207</name>
			<min>… 0.000000</min>
			<max>… 0.000000</max>
		</layer>
		<layer>
			<name>Relu_210</name>
			<min>… 0.000000</min>
			<max>… 0.000000</max>
		</layer>
		<layer>
			<name>Relu_214</name>
			<min>… 0.000000</min>
			<max>… 0.000000</max>
		</layer>
		<layer>
			<name>Relu_217</name>
			<min>… 0.000000</min>
			<max>… 0.000000</max>
		</layer>
		<layer>
			<name>Relu_221</name>
			<min>… 0.000000</min>
			<max>… 0.000000</max>
		</layer>
		<layer>
			<name>Relu_224</name>
			<min>… 0.000000</min>
			<max>… 0.000000</max>
		</layer>
		<layer>
			<name>Relu_228</name>
			<min>… 0.000000</min>
			<max>… 0.000000</max>
		</layer>
		<layer>
			<name>Relu_23</name>
			<min>… 0.000000</min>
			<max>… 0.000000</max>
		</layer>
		<layer>
			<name>Relu_231</name>
			<min>… 0.000000</min>
			<max>… 0.000000</max>
		</layer>
		<layer>
			<name>Relu_235</name>
			<min>… 0.000000</min>
			<max>… 0.000000</max>
		</layer>
		<layer>
			<name>Relu_238</name>
			<min>… 0.000000</min>
			<max>… 0.000000</max>
		</layer>
		<layer>
			<name>Relu_242</name>
			<min>… 0.000000</min>
			<max>… 0.000000</max>
		</layer>
		<layer>
			<name>Relu_245</name>
			<min>… 0.000000</min>
			<max>… 0.000000</max>
		</layer>
		<layer>
			<name>Relu_249</name>
			<min>… 0.000000</min>
			<max>… 0.000000</max>
		</layer>
		<layer>
			<name>Relu_252</name>
			<min>… 0.000000</min>
			<max>… 0.000000</max>
		</layer>
		<layer>
			<name>Relu_256</name>
			<min>… 0.000000</min>
			<max>… 0.000000</max>
		</layer>
		<layer>
			<name>Relu_259</name>
			<min>… 0.000000</min>
			<max>… 0.000000</max>
		</layer>
		<layer>
			<name>Relu_263</name>
			<min>… 0.000000</min>
			<max>… 0.000000</max>
		</layer>
		<layer>
			<name>Relu_266</name>
			<min>… 0.000000</min>
			<max>… 0.000000</max>
		</layer>
		<layer>
			<name>Relu_27</name>
			<min>… 0.000000</min>
			<max>… 0.000000</max>
		</layer>
		<layer>
			<name>Relu_270</name>
			<min>… 0.000000</min>
			<max>… 0.000000</max>
		</layer>
		<layer>
			<name>Relu_273</name>
			<min>… 0.000000</min>
			<max>… 0.000000</max>
		</layer>
		<layer>
			<name>Relu_277</name>
			<min>… 0.000000</min>
			<max>… 0.000000</max>
		</layer>
		<layer>
			<name>Relu_280</name>
			<min>… 0.000000</min>
			<max>… 0.000000</max>
		</layer>
		<layer>
			<name>Relu_284</name>
			<min>… 0.000000</min>
			<max>… 0.000000</max>
		</layer>
		<layer>
			<name>Relu_287</name>
			<min>… 0.000000</min>
			<max>… 0.000000</max>
		</layer>
		<layer>
			<name>Relu_291</name>
			<min>… 0.000000</min>
			<max>… 0.000000</max>
		</layer>
		<layer>
			<name>Relu_294</name>
			<min>… 0.000000</min>
			<max>… 0.000000</max>
		</layer>
		<layer>
			<name>Relu_298</name>
			<min>… 0.000000</min>
			<max>… 0.000000</max>
		</layer>
		<layer>
			<name>Relu_30</name>
			<min>… 0.000000</min>
			<max>… 0.000000</max>
		</layer>
		<layer>
			<name>Relu_301</name>
			<min>… 0.000000</min>
			<max>… 0.000000</max>
		</layer>
		<layer>
			<name>Relu_305</name>
			<min>… 0.000000</min>
			<max>… 0.000000</max>
		</layer>
		<layer>
			<name>Relu_308</name>
			<min>… 0.000000</min>
			<max>… 0.000000</max>
		</layer>
		<layer>
			<name>Relu_312</name>
			<min>… 0.000000</min>
			<max>… 0.000000</max>
		</layer>
		<layer>
			<name>Relu_318</name>
			<min>… 0.000000</min>
			<max>… 0.000000</max>
		</layer>
		<layer>
			<name>Relu_321</name>
			<min>… 0.000000</min>
			<max>… 0.000000</max>
		</layer>
		<layer>
			<name>Relu_325</name>
			<min>… 0.000000</min>
			<max>… 0.000000</max>
		</layer>
		<layer>
			<name>Relu_328</name>
			<min>… 0.000000</min>
			<max>… 0.000000</max>
		</layer>
		<layer>
			<name>Relu_332</name>
			<min>… 0.000000</min>
			<max>… 0.000000</max>
		</layer>
		<layer>
			<name>Relu_335</name>
			<min>… 0.000000</min>
			<max>… 0.000000</max>
		</layer>
		<layer>
			<name>Relu_339</name>
			<min>… 0.000000</min>
			<max>… 0.000000</max>
		</layer>
		<layer>
			<name>Relu_34</name>
			<min>… 0.000000</min>
			<max>… 0.000000</max>
		</layer>
		<layer>
			<name>Relu_342</name>
			<min>… 0.000000</min>
			<max>… 0.000000</max>
		</layer>
		<layer>
			<name>Relu_346</name>
			<min>… 0.000000</min>
			<max>… 0.000000</max>
		</layer>
		<layer>
			<name>Relu_349</name>
			<min>… 0.000000</min>
			<max>… 0.000000</max>
		</layer>
		<layer>
			<name>Relu_353</name>
			<min>… 0.000000</min>
			<max>… 0.000000</max>
		</layer>
		<layer>
			<name>Relu_356</name>
			<min>… 0.000000</min>
			<max>… 0.000000</max>
		</layer>
		<layer>
			<name>Relu_360</name>
			<min>… 0.000000</min>
			<max>… 0.000000</max>
		</layer>
		<layer>
			<name>Relu_363</name>
			<min>… 0.000000</min>
			<max>… 0.000000</max>
		</layer>
		<layer>
			<name>Relu_367</name>
			<min>… 0.000000</min>
			<max>… 0.000000</max>
		</layer>
		<layer>
			<name>Relu_37</name>
			<min>… 0.000000</min>
			<max>… 0.000000</max>
		</layer>
		<layer>
			<name>Relu_370</name>
			<min>… 0.000000</min>
			<max>… 0.000000</max>
		</layer>
		<layer>
			<name>Relu_374</name>
			<min>… 0.000000</min>
			<max>… 0.000000</max>
		</layer>
		<layer>
			<name>Relu_377</name>
			<min>… 0.000000</min>
			<max>… 0.000000</max>
		</layer>
		<layer>
			<name>Relu_381</name>
			<min>… 0.000000</min>
			<max>… 0.000000</max>
		</layer>
		<layer>
			<name>Relu_384</name>
			<min>… 0.000000</min>
			<max>… 0.000000</max>
		</layer>
		<layer>
			<name>Relu_388</name>
			<min>… 0.000000</min>
			<max>… 0.000000</max>
		</layer>
		<layer>
			<name>Relu_391</name>
			<min>… 0.000000</min>
			<max>… 0.000000</max>
		</layer>
		<layer>
			<name>Relu_395</name>
			<min>… 0.000000</min>
			<max>… 0.000000</max>
		</layer>
		<layer>
			<name>Relu_398</name>
			<min>… 0.000000</min>
			<max>… 0.000000</max>
		</layer>
		<layer>
			<name>Relu_402</name>
			<min>… 0.000000</min>
			<max>… 0.000000</max>
		</layer>
		<layer>
			<name>Relu_405</name>
			<min>… 0.000000</min>
			<max>… 0.000000</max>
		</layer>
		<layer>
			<name>Relu_409</name>
			<min>… 0.000000</min>
			<max>… 0.000000</max>
		</layer>
		<layer>
			<name>Relu_41</name>
			<min>… 0.000000</min>
			<max>… 0.000000</max>
		</layer>
		<layer>
			<name>Relu_412</name>
			<min>… 0.000000</min>
			<max>… 0.000000</max>
		</layer>
		<layer>
			<name>Relu_416</name>
			<min>… 0.000000</min>
			<max>… 0.000000</max>
		</layer>
		<layer>
			<name>Relu_419</name>
			<min>… 0.000000</min>
			<max>… 0.000000</max>
		</layer>
		<layer>
			<name>Relu_423</name>
			<min>… 0.000000</min>
			<max>… 0.000000</max>
		</layer>
		<layer>
			<name>Relu_426</name>
			<min>… 0.000000</min>
			<max>… 0.000000</max>
		</layer>
		<layer>
			<name>Relu_430</name>
			<min>… 0.000000</min>
			<max>… 0.000000</max>
		</layer>
		<layer>
			<name>Relu_44</name>
			<min>… 0.000000</min>
			<max>… 0.000000</max>
		</layer>
		<layer>
			<name>Relu_48</name>
			<min>… 0.000000</min>
			<max>… 0.000000</max>
		</layer>
		<layer>
			<name>Relu_54</name>
			<min>… 0.000000</min>
			<max>… 0.000000</max>
		</layer>
		<layer>
			<name>Relu_57</name>
			<min>… 0.000000</min>
			<max>… 0.000000</max>
		</layer>
		<layer>
			<name>Relu_6</name>
			<min>… 0.000000</min>
			<max>… 0.000000</max>
		</layer>
		<layer>
			<name>Relu_61</name>
			<min>… 0.000000</min>
			<max>… 0.000000</max>
		</layer>
		<layer>
			<name>Relu_64</name>
			<min>… 0.000000</min>
			<max>… 0.000000</max>
		</layer>
		<layer>
			<name>Relu_68</name>
			<min>… 0.000000</min>
			<max>… 0.000000</max>
		</layer>
		<layer>
			<name>Relu_71</name>
			<min>… 0.000000</min>
			<max>… 0.000000</max>
		</layer>
		<layer>
			<name>Relu_75</name>
			<min>… 0.000000</min>
			<max>… 0.000000</max>
		</layer>
		<layer>
			<name>Relu_78</name>
			<min>… 0.000000</min>
			<max>… 0.000000</max>
		</layer>
		<layer>
			<name>Relu_82</name>
			<min>… 0.000000</min>
			<max>… 0.000000</max>
		</layer>
		<layer>
			<name>Relu_85</name>
			<min>… 0.000000</min>
			<max>… 0.000000</max>
		</layer>
		<layer>
			<name>Relu_89</name>
			<min>… 0.000000</min>
			<max>… 0.000000</max>
		</layer>
		<layer>
			<name>Relu_9</name>
			<min>… 0.000000</min>
			<max>… 0.000000</max>
		</layer>
		<layer>
			<name>Relu_92</name>
			<min>… 0.000000</min>
			<max>… 0.000000</max>
		</layer>
		<layer>
			<name>Relu_96</name>
			<min>… 0.000000</min>
			<max>… 0.000000</max>
		</layer>
		<layer>
			<name>Relu_99</name>
			<min>… 0.000000</min>
			<max>… 0.000000</max>
		</layer>
		<layer>
			<name>Sigmoid_434</name>
			<min>0.014279, 0.000000, 0.000000, 0.000000, 0.000000, 0.000000, 0.000000, 0.000000, 0.000000, 0.000000, 0.000000, 0.000000, 0.000000, 0.000000</min>
			<max>0.885370, 0.793247, 0.764220, 0.760072, 0.796682, 0.828817, 0.775976, 0.662375, 0.775708, 0.617011, 0.581936, 0.449120, 0.419349, 0.123621</max>
		</layer>
		<layer>
			<name>input</name>
			<min>-2.117904, -2.035714, -1.804444</min>
			<max>2.231784, 2.465708, 2.413420</max>
		</layer>
	</statistics>
</net>
